…
t]Loading checkpoint shards: 100%|██████████| 2/2 [01:09<00:00, 34.98s/it]
Loading checkpoint shards: 100%|██████████| 2/2 [01:10<00:00, 29.97s/it]Loading checkpoint shards: 100%|██████████| 2/2 [01:10<00:00, 35.06s/it]
Loading checkpoint shards: 100%|██████████| 2/2 [01:10<00:00, 30.04s/it]Loading checkpoint shards: 100%|██████████| 2/2 [01:10<00:00, 35.14s/it]
Loading checkpoint shards: 100%|██████████| 2/2 [01:10<00:00, 30.04s/it]Loading checkpoint shards: 100%|██████████| 2/2 [01:10<00:00, 35.03s/it]
LLM init. firstly
 LlavaPhiForCausalLM(
  (model): LlavaPhiModel(
    (embed_tokens): Embedding(51200, 2560)
    (embed_dropout): Dropout(p=0.0, inplace=False)
    (layers): ModuleList(
      (0-31): 32 x PhiDecoderLayer(
        (self_attn): PhiAttention(
          (q_proj): Linear(in_features=2560, out_features=2560, bias=True)
          (k_proj): Linear(in_features=2560, out_features=2560, bias=True)
          (v_proj): Linear(in_features=2560, out_features=2560, bias=True)
          (dense): Linear(in_features=2560, out_features=2560, bias=True)
          (rotary_emb): PhiRotaryEmbedding()
        )
        (mlp): PhiMLP(
          (activation_fn): NewGELUActivation()
          (fc1): Linear(in_features=2560, out_features=10240, bias=True)
          (fc2): Linear(in_features=10240, out_features=2560, bias=True)
        )
        (input_layernorm): LayerNorm((2560,), eps=1e-05, elementwise_affine=True)
        (resid_dropout): Dropout(p=0.1, inplace=False)
      )
    )
    (final_layernorm): LayerNorm((2560,), eps=1e-05, elementwise_affine=True)
  )
  (lm_head): Linear(in_features=2560, out_features=51200, bias=False)
)
Special tokens have been added in the vocabulary, make sure the associated word embeddings are fine-tuned or trained.
Special tokens have been added in the vocabulary, make sure the associated word embeddings are fine-tuned or trained.
Special tokens have been added in the vocabulary, make sure the associated word embeddings are fine-tuned or trained.
…
fQ__&Signature=Z4JQ56dV9JRPSMP7eBic7aVDBmx7Uvmwe5yFzo5zo5-YMkxM08yqAhWxCWvHc7xQbxPf6ZUcMqyOjjbvRDV7LVY9qf%7EOFCr4I1zkfbyuQDYpRv%7Et-RnrRHc0v%7Eol2yrSMlKSoR0DBP943yhneJKtSJAt300DsyrYVbvzraK7kjuOpO3zbOPpuplatRVWHCz%7Er1NQsb3e1k4LNhPkDxcmijSHNIMTGPS45lRwvwTf8QE5wiCtP1JWeKjXqVyABi%7EJHo5iTNSHaGGsg3mJDO8MyTZgFq27ZPss%7Eq8s-Fo-WGwsLbSxQLlLyDOz6ggY1jm-YEWXzLATKMvO-a2JuIjoWg__&Key-Pair-Id=K3ESJI6DHPFC7: HTTPSConnectionPool(host='cdn-lfs.hf-mirror.com', port=443): Read timed out.
Trying to resume download...
Vision encoder and proj init.
 LlavaPhiForCausalLM(
  (model): LlavaPhiModel(
    (embed_tokens): Embedding(51200, 2560)
    (embed_dropout): Dropout(p=0.0, inplace=False)
    (layers): ModuleList(
      (0-31): 32 x PhiDecoderLayer(
        (self_attn): PhiAttention(
          (q_proj): Linear(in_features=2560, out_features=2560, bias=True)
          (k_proj): Linear(in_features=2560, out_features=2560, bias=True)
          (v_proj): Linear(in_features=2560, out_features=2560, bias=True)
          (dense): Linear(in_features=2560, out_features=2560, bias=True)
          (rotary_emb): PhiRotaryEmbedding()
        )
        (mlp): PhiMLP(
          (activation_fn): NewGELUActivation()
          (fc1): Linear(in_features=2560, out_features=10240, bias=True)
          (fc2): Linear(in_features=10240, out_features=2560, bias=True)
        )
        (input_layernorm): LayerNorm((2560,), eps=1e-05, elementwise_affine=True)
        (resid_dropout): Dropout(p=0.1, inplace=False)
      )
    )
    (final_layernorm): LayerNorm((2560,), eps=1e-05, elementwise_affine=True)
    (image_tower): CLIPVisionTower(
      (image_tower): CLIPVisionModel(
        (vision_model): CLIPVisionTransformer(
          (embeddings): CLIPVisionEmbeddings(
            (patch_embedding): Conv2d(3, 1024, kernel_size=(14, 14), stride=(14, 14), bias=False)
            (position_embedding): Embedding(577, 1024)
          )
          (pre_layrnorm): LayerNorm((1024,), eps=1e-05, elementwise_affine=True)
          (encoder): CLIPEncoder(
            (layers): ModuleList(
              (0-23): 24 x CLIPEncoderLayer(
                (self_attn): CLIPAttention(
                  (k_proj): Linear(in_features=1024, out_features=1024, bias=True)
                  (v_proj): Linear(in_features=1024, out_features=1024, bias=True)
                  (q_proj): Linear(in_features=1024, out_features=1024, bias=True)
                  (out_proj): Linear(in_features=1024, out_features=1024, bias=True)
                )
                (layer_norm1): LayerNorm((1024,), eps=1e-05, elementwise_affine=True)
                (mlp): CLIPMLP(
                  (activation_fn): QuickGELUActivation()
                  (fc1): Linear(in_features=1024, out_features=4096, bias=True)
                  (fc2): Linear(in_features=4096, out_features=1024, bias=True)
                )
                (layer_norm2): LayerNorm((1024,), eps=1e-05, elementwise_affine=True)
              )
            )
          )
          (post_layernorm): LayerNorm((1024,), eps=1e-05, elementwise_affine=True)
        )
      )
    )
    (mm_projector): build_projector(
      (image_spatial_proj): Sequential(
        (0): Linear(in_features=1024, out_features=2560, bias=True)
        (1): GELU(approximate='none')
        (2): Linear(in_features=2560, out_features=2560, bias=True)
      )
      (video_patch_proj): Identity()
      (video_spatial_proj): Identity()
      (video_temproal_proj): Identity()
      (video_global_proj): Identity()
    )
  )
  (lm_head): Linear(in_features=2560, out_features=51200, bias=False)
)
model.embed_tokens.weight
model.layers.0.self_attn.q_proj.weight
model.layers.0.self_attn.q_proj.bias
model.layers.0.self_attn.k_proj.weight
model.layers.0.self_attn.k_proj.bias
model.layers.0.self_attn.v_proj.weight
model.layers.0.self_attn.v_proj.bias
model.layers.0.self_attn.dense.weight
model.layers.0.self_attn.dense.bias
model.layers.0.mlp.fc1.weight
…
