…
Loading checkpoint shards: 100%|â–ˆâ–ˆâ–ˆâ–ˆâ–ˆâ–ˆâ–ˆâ–ˆâ–ˆâ–ˆ| 2/2 [00:18<00:00,  8.02s/it]Loading checkpoint shards: 100%|â–ˆâ–ˆâ–ˆâ–ˆâ–ˆâ–ˆâ–ˆâ–ˆâ–ˆâ–ˆ| 2/2 [00:18<00:00,  8.01s/it]Loading checkpoint shards: 100%|â–ˆâ–ˆâ–ˆâ–ˆâ–ˆâ–ˆâ–ˆâ–ˆâ–ˆâ–ˆ| 2/2 [00:18<00:00,  9.18s/it]
Loading checkpoint shards: 100%|â–ˆâ–ˆâ–ˆâ–ˆâ–ˆâ–ˆâ–ˆâ–ˆâ–ˆâ–ˆ| 2/2 [00:18<00:00,  9.17s/it]
Loading checkpoint shards: 100%|â–ˆâ–ˆâ–ˆâ–ˆâ–ˆâ–ˆâ–ˆâ–ˆâ–ˆâ–ˆ| 2/2 [00:18<00:00,  7.89s/it]Loading checkpoint shards: 100%|â–ˆâ–ˆâ–ˆâ–ˆâ–ˆâ–ˆâ–ˆâ–ˆâ–ˆâ–ˆ| 2/2 [00:18<00:00,  9.02s/it]
LLM init. firstly
 MoELLaVAPhiForCausalLM(
  (model): MoELLaVAPhiModel(
    (embed_tokens): Embedding(51200, 2560, padding_idx=50295)
    (embed_dropout): Dropout(p=0.0, inplace=False)
    (layers): ModuleList(
      (0-31): 32 x PhiDecoderLayer(
        (self_attn): PhiAttention(
          (q_proj): Linear(in_features=2560, out_features=2560, bias=True)
          (k_proj): Linear(in_features=2560, out_features=2560, bias=True)
          (v_proj): Linear(in_features=2560, out_features=2560, bias=True)
          (dense): Linear(in_features=2560, out_features=2560, bias=True)
          (rotary_emb): PhiRotaryEmbedding()
        )
        (mlp): PhiMLP(
          (activation_fn): NewGELUActivation()
          (fc1): Linear(in_features=2560, out_features=10240, bias=True)
          (fc2): Linear(in_features=10240, out_features=2560, bias=True)
        )
        (input_layernorm): LayerNorm((2560,), eps=1e-05, elementwise_affine=True)
        (resid_dropout): Dropout(p=0.1, inplace=False)
      )
    )
    (final_layernorm): LayerNorm((2560,), eps=1e-05, elementwise_affine=True)
    (image_tower): CLIPVisionTower()
    (mm_projector): build_projector(
      (image_spatial_proj): Sequential(
        (0): Linear(in_features=1024, out_features=2560, bias=True)
        (1): GELU(approximate='none')
        (2): Linear(in_features=2560, out_features=2560, bias=True)
      )
      (video_patch_proj): Identity()
      (video_spatial_proj): Identity()
      (video_temproal_proj): Identity()
      (video_global_proj): Identity()
    )
  )
  (lm_head): Linear(in_features=2560, out_features=51200, bias=False)
)
[2024-05-28 00:48:46,752] [INFO] [logging.py:96:log_dist] [Rank 0] Creating MoE layer with num_experts: 4 | num_local_experts: 4 | expert_parallel_size: 1
Loading checkpoint shards: 100%|â–ˆâ–ˆâ–ˆâ–ˆâ–ˆâ–ˆâ–ˆâ–ˆâ–ˆâ–ˆ| 2/2 [00:18<00:00,  8.06s/it]Loading checkpoint shards: 100%|â–ˆâ–ˆâ–ˆâ–ˆâ–ˆâ–ˆâ–ˆâ–ˆâ–ˆâ–ˆ| 2/2 [00:18<00:00,  9.23s/it]
Loading checkpoint shards: 100%|â–ˆâ–ˆâ–ˆâ–ˆâ–ˆâ–ˆâ–ˆâ–ˆâ–ˆâ–ˆ| 2/2 [00:18<00:00,  8.26s/it]Loading checkpoint shards: 100%|â–ˆâ–ˆâ–ˆâ–ˆâ–ˆâ–ˆâ–ˆâ–ˆâ–ˆâ–ˆ| 2/2 [00:18<00:00,  9.33s/it]
…
[93m [WARNING] [0m cpu_adam cuda is missing or is incompatible with installed torch, only cpu ops can be compiled!
Using /home/data_llm/.cache/torch_extensions/py312_cu121 as PyTorch extensions root...
Emitting ninja build file /home/data_llm/.cache/torch_extensions/py312_cu121/cpu_adam/build.ninja...
Building extension module cpu_adam...
Allowing ninja to set a default number of workers... (overridable by setting the environment variable MAX_JOBS=N)
ninja: no work to do.
Loading extension module cpu_adam...
Time to load cpu_adam op: 2.627821922302246 seconds
Vision encoder and proj init.
 MoELLaVAPhiForCausalLM(
  (model): MoELLaVAPhiModel(
    (embed_tokens): Embedding(51200, 2560, padding_idx=50295)
    (embed_dropout): Dropout(p=0.0, inplace=False)
    (layers): ModuleList(
      (0): PhiDecoderLayer(
        (self_attn): PhiAttention(
          (q_proj): Linear(in_features=2560, out_features=2560, bias=True)
          (k_proj): Linear(in_features=2560, out_features=2560, bias=True)
          (v_proj): Linear(in_features=2560, out_features=2560, bias=True)
          (dense): Linear(in_features=2560, out_features=2560, bias=True)
          (rotary_emb): PhiRotaryEmbedding()
        )
        (mlp): MoE(
          (deepspeed_moe): MOELayer(
            (gate): TopKGate(
              (wg): Linear(in_features=2560, out_features=4, bias=False)
            )
            (experts): Experts(
              (deepspeed_experts): ModuleList(
                (0-3): 4 x PhiMLP(
                  (activation_fn): NewGELUActivation()
                  (fc1): Linear(in_features=2560, out_features=10240, bias=True)
                  (fc2): Linear(in_features=10240, out_features=2560, bias=True)
                )
              )
            )
          )
        )
        (input_layernorm): LayerNorm((2560,), eps=1e-05, elementwise_affine=True)
        (resid_dropout): Dropout(p=0.1, inplace=False)
      )
      (1): PhiDecoderLayer(
        (self_attn): PhiAttention(
          (q_proj): Linear(in_features=2560, out_features=2560, bias=True)
          (k_proj): Linear(in_features=2560, out_features=2560, bias=True)
          (v_proj): Linear(in_features=2560, out_features=2560, bias=True)
          (dense): Linear(in_features=2560, out_features=2560, bias=True)
          (rotary_emb): PhiRotaryEmbedding()
        )
        (mlp): PhiMLP(
          (activation_fn): NewGELUActivation()
          (fc1): Linear(in_features=2560, out_features=10240, bias=True)
          (fc2): Linear(in_features=10240, out_features=2560, bias=True)
        )
        (input_layernorm): LayerNorm((2560,), eps=1e-05, elementwise_affine=True)
        (resid_dropout): Dropout(p=0.1, inplace=False)
      )
      (2): PhiDecoderLayer(
        (self_attn): PhiAttention(
          (q_proj): Linear(in_features=2560, out_features=2560, bias=True)
          (k_proj): Linear(in_features=2560, out_features=2560, bias=True)
          (v_proj): Linear(in_features=2560, out_features=2560, bias=True)
          (dense): Linear(in_features=2560, out_features=2560, bias=True)
          (rotary_emb): PhiRotaryEmbedding()
        )
        (mlp): MoE(
          (deepspeed_moe): MOELayer(
            (gate): TopKGate(
              (wg): Linear(in_features=2560, out_features=4, bias=False)
            )
            (experts): Experts(
              (deepspeed_experts): ModuleList(
                (0-3): 4 x PhiMLP(
                  (activation_fn): NewGELUActivation()
                  (fc1): Linear(in_features=2560, out_features=10240, bias=True)
                  (fc2): Linear(in_features=10240, out_features=2560, bias=True)
                )
              )
            )
          )
        )
        (input_layernorm): LayerNorm((2560,), eps=1e-05, elementwise_affine=True)
        (resid_dropout): Dropout(p=0.1, inplace=False)
      )
      (3): PhiDecoderLayer(
        (self_attn): PhiAttention(
          (q_proj): Linear(in_features=2560, out_features=2560, bias=True)
          (k_proj): Linear(in_features=2560, out_features=2560, bias=True)
          (v_proj): Linear(in_features=2560, out_features=2560, bias=True)
          (dense): Linear(in_features=2560, out_features=2560, bias=True)
          (rotary_emb): PhiRotaryEmbedding()
        )
        (mlp): PhiMLP(
          (activation_fn): NewGELUActivation()
          (fc1): Linear(in_features=2560, out_features=10240, bias=True)
          (fc2): Linear(in_features=10240, out_features=2560, bias=True)
        )
        (input_layernorm): LayerNorm((2560,), eps=1e-05, elementwise_affine=True)
        (resid_dropout): Dropout(p=0.1, inplace=False)
      )
      (4): PhiDecoderLayer(
        (self_attn): PhiAttention(
          (q_proj): Linear(in_features=2560, out_features=2560, bias=True)
          (k_proj): Linear(in_features=2560, out_features=2560, bias=True)
          (v_proj): Linear(in_features=2560, out_features=2560, bias=True)
          (dense): Linear(in_features=2560, out_features=2560, bias=True)
          (rotary_emb): PhiRotaryEmbedding()
        )
        (mlp): MoE(
          (deepspeed_moe): MOELayer(
            (gate): TopKGate(
              (wg): Linear(in_features=2560, out_features=4, bias=False)
            )
            (experts): Experts(
              (deepspeed_experts): ModuleList(
                (0-3): 4 x PhiMLP(
                  (activation_fn): NewGELUActivation()
                  (fc1): Linear(in_features=2560, out_features=10240, bias=True)
                  (fc2): Linear(in_features=10240, out_features=2560, bias=True)
                )
              )
            )
          )
        )
        (input_layernorm): LayerNorm((2560,), eps=1e-05, elementwise_affine=True)
        (resid_dropout): Dropout(p=0.1, inplace=False)
      )
      (5): PhiDecoderLayer(
        (self_attn): PhiAttention(
          (q_proj): Linear(in_features=2560, out_features=2560, bias=True)
          (k_proj): Linear(in_features=2560, out_features=2560, bias=True)
          (v_proj): Linear(in_features=2560, out_features=2560, bias=True)
          (dense): Linear(in_features=2560, out_features=2560, bias=True)
          (rotary_emb): PhiRotaryEmbedding()
        )
        (mlp): PhiMLP(
          (activation_fn): NewGELUActivation()
          (fc1): Linear(in_features=2560, out_features=10240, bias=True)
          (fc2): Linear(in_features=10240, out_features=2560, bias=True)
        )
        (input_layernorm): LayerNorm((2560,), eps=1e-05, elementwise_affine=True)
        (resid_dropout): Dropout(p=0.1, inplace=False)
      )
      (6): PhiDecoderLayer(
        (self_attn): PhiAttention(
          (q_proj): Linear(in_features=2560, out_features=2560, bias=True)
          (k_proj): Linear(in_features=2560, out_features=2560, bias=True)
          (v_proj): Linear(in_features=2560, out_features=2560, bias=True)
          (dense): Linear(in_features=2560, out_features=2560, bias=True)
          (rotary_emb): PhiRotaryEmbedding()
        )
        (mlp): MoE(
          (deepspeed_moe): MOELayer(
            (gate): TopKGate(
              (wg): Linear(in_features=2560, out_features=4, bias=False)
            )
            (experts): Experts(
              (deepspeed_experts): ModuleList(
                (0-3): 4 x PhiMLP(
                  (activation_fn): NewGELUActivation()
                  (fc1): Linear(in_features=2560, out_features=10240, bias=True)
                  (fc2): Linear(in_features=10240, out_features=2560, bias=True)
                )
              )
            )
          )
        )
        (input_layernorm): LayerNorm((2560,), eps=1e-05, elementwise_affine=True)
        (resid_dropout): Dropout(p=0.1, inplace=False)
      )
      (7): PhiDecoderLayer(
        (self_attn): PhiAttention(
          (q_proj): Linear(in_features=2560, out_features=2560, bias=True)
          (k_proj): Linear(in_features=2560, out_features=2560, bias=True)
          (v_proj): Linear(in_features=2560, out_features=2560, bias=True)
          (dense): Linear(in_features=2560, out_features=2560, bias=True)
          (rotary_emb): PhiRotaryEmbedding()
        )
        (mlp): PhiMLP(
          (activation_fn): NewGELUActivation()
          (fc1): Linear(in_features=2560, out_features=10240, bias=True)
          (fc2): Linear(in_features=10240, out_features=2560, bias=True)
        )
        (input_layernorm): LayerNorm((2560,), eps=1e-05, elementwise_affine=True)
        (resid_dropout): Dropout(p=0.1, inplace=False)
      )
      (8): PhiDecoderLayer(
        (self_attn): PhiAttention(
          (q_proj): Linear(in_features=2560, out_features=2560, bias=True)
          (k_proj): Linear(in_features=2560, out_features=2560, bias=True)
          (v_proj): Linear(in_features=2560, out_features=2560, bias=True)
          (dense): Linear(in_features=2560, out_features=2560, bias=True)
          (rotary_emb): PhiRotaryEmbedding()
        )
        (mlp): MoE(
          (deepspeed_moe): MOELayer(
            (gate): TopKGate(
              (wg): Linear(in_features=2560, out_features=4, bias=False)
            )
            (experts): Experts(
              (deepspeed_experts): ModuleList(
                (0-3): 4 x PhiMLP(
                  (activation_fn): NewGELUActivation()
                  (fc1): Linear(in_features=2560, out_features=10240, bias=True)
                  (fc2): Linear(in_features=10240, out_features=2560, bias=True)
                )
              )
            )
          )
        )
        (input_layernorm): LayerNorm((2560,), eps=1e-05, elementwise_affine=True)
        (resid_dropout): Dropout(p=0.1, inplace=False)
      )
      (9): PhiDecoderLayer(
        (self_attn): PhiAttention(
          (q_proj): Linear(in_features=2560, out_features=2560, bias=True)
          (k_proj): Linear(in_features=2560, out_features=2560, bias=True)
          (v_proj): Linear(in_features=2560, out_features=2560, bias=True)
          (dense): Linear(in_features=2560, out_features=2560, bias=True)
          (rotary_emb): PhiRotaryEmbedding()
        )
        (mlp): PhiMLP(
          (activation_fn): NewGELUActivation()
          (fc1): Linear(in_features=2560, out_features=10240, bias=True)
          (fc2): Linear(in_features=10240, out_features=2560, bias=True)
        )
        (input_layernorm): LayerNorm((2560,), eps=1e-05, elementwise_affine=True)
        (resid_dropout): Dropout(p=0.1, inplace=False)
      )
      (10): PhiDecoderLayer(
        (self_attn): PhiAttention(
          (q_proj): Linear(in_features=2560, out_features=2560, bias=True)
          (k_proj): Linear(in_features=2560, out_features=2560, bias=True)
          (v_proj): Linear(in_features=2560, out_features=2560, bias=True)
          (dense): Linear(in_features=2560, out_features=2560, bias=True)
          (rotary_emb): PhiRotaryEmbedding()
        )
        (mlp): MoE(
          (deepspeed_moe): MOELayer(
            (gate): TopKGate(
              (wg): Linear(in_features=2560, out_features=4, bias=False)
            )
            (experts): Experts(
              (deepspeed_experts): ModuleList(
                (0-3): 4 x PhiMLP(
                  (activation_fn): NewGELUActivation()
                  (fc1): Linear(in_features=2560, out_features=10240, bias=True)
                  (fc2): Linear(in_features=10240, out_features=2560, bias=True)
                )
              )
            )
          )
        )
        (input_layernorm): LayerNorm((2560,), eps=1e-05, elementwise_affine=True)
        (resid_dropout): Dropout(p=0.1, inplace=False)
      )
      (11): PhiDecoderLayer(
        (self_attn): PhiAttention(
          (q_proj): Linear(in_features=2560, out_features=2560, bias=True)
          (k_proj): Linear(in_features=2560, out_features=2560, bias=True)
          (v_proj): Linear(in_features=2560, out_features=2560, bias=True)
          (dense): Linear(in_features=2560, out_features=2560, bias=True)
          (rotary_emb): PhiRotaryEmbedding()
        )
        (mlp): PhiMLP(
          (activation_fn): NewGELUActivation()
          (fc1): Linear(in_features=2560, out_features=10240, bias=True)
          (fc2): Linear(in_features=10240, out_features=2560, bias=True)
        )
        (input_layernorm): LayerNorm((2560,), eps=1e-05, elementwise_affine=True)
        (resid_dropout): Dropout(p=0.1, inplace=False)
      )
      (12): PhiDecoderLayer(
        (self_attn): PhiAttention(
          (q_proj): Linear(in_features=2560, out_features=2560, bias=True)
          (k_proj): Linear(in_features=2560, out_features=2560, bias=True)
          (v_proj): Linear(in_features=2560, out_features=2560, bias=True)
          (dense): Linear(in_features=2560, out_features=2560, bias=True)
          (rotary_emb): PhiRotaryEmbedding()
        )
        (mlp): MoE(
          (deepspeed_moe): MOELayer(
            (gate): TopKGate(
              (wg): Linear(in_features=2560, out_features=4, bias=False)
            )
            (experts): Experts(
              (deepspeed_experts): ModuleList(
                (0-3): 4 x PhiMLP(
                  (activation_fn): NewGELUActivation()
                  (fc1): Linear(in_features=2560, out_features=10240, bias=True)
                  (fc2): Linear(in_features=10240, out_features=2560, bias=True)
                )
              )
            )
          )
        )
        (input_layernorm): LayerNorm((2560,), eps=1e-05, elementwise_affine=True)
        (resid_dropout): Dropout(p=0.1, inplace=False)
      )
      (13): PhiDecoderLayer(
        (self_attn): PhiAttention(
          (q_proj): Linear(in_features=2560, out_features=2560, bias=True)
          (k_proj): Linear(in_features=2560, out_features=2560, bias=True)
          (v_proj): Linear(in_features=2560, out_features=2560, bias=True)
          (dense): Linear(in_features=2560, out_features=2560, bias=True)
          (rotary_emb): PhiRotaryEmbedding()
        )
        (mlp): PhiMLP(
          (activation_fn): NewGELUActivation()
          (fc1): Linear(in_features=2560, out_features=10240, bias=True)
          (fc2): Linear(in_features=10240, out_features=2560, bias=True)
        )
        (input_layernorm): LayerNorm((2560,), eps=1e-05, elementwise_affine=True)
        (resid_dropout): Dropout(p=0.1, inplace=False)
      )
      (14): PhiDecoderLayer(
        (self_attn): PhiAttention(
          (q_proj): Linear(in_features=2560, out_features=2560, bias=True)
          (k_proj): Linear(in_features=2560, out_features=2560, bias=True)
          (v_proj): Linear(in_features=2560, out_features=2560, bias=True)
          (dense): Linear(in_features=2560, out_features=2560, bias=True)
          (rotary_emb): PhiRotaryEmbedding()
        )
        (mlp): MoE(
          (deepspeed_moe): MOELayer(
            (gate): TopKGate(
              (wg): Linear(in_features=2560, out_features=4, bias=False)
            )
            (experts): Experts(
              (deepspeed_experts): ModuleList(
                (0-3): 4 x PhiMLP(
                  (activation_fn): NewGELUActivation()
                  (fc1): Linear(in_features=2560, out_features=10240, bias=True)
                  (fc2): Linear(in_features=10240, out_features=2560, bias=True)
                )
              )
            )
          )
        )
        (input_layernorm): LayerNorm((2560,), eps=1e-05, elementwise_affine=True)
        (resid_dropout): Dropout(p=0.1, inplace=False)
      )
      (15): PhiDecoderLayer(
        (self_attn): PhiAttention(
          (q_proj): Linear(in_features=2560, out_features=2560, bias=True)
          (k_proj): Linear(in_features=2560, out_features=2560, bias=True)
          (v_proj): Linear(in_features=2560, out_features=2560, bias=True)
          (dense): Linear(in_features=2560, out_features=2560, bias=True)
          (rotary_emb): PhiRotaryEmbedding()
        )
        (mlp): PhiMLP(
          (activation_fn): NewGELUActivation()
          (fc1): Linear(in_features=2560, out_features=10240, bias=True)
          (fc2): Linear(in_features=10240, out_features=2560, bias=True)
        )
        (input_layernorm): LayerNorm((2560,), eps=1e-05, elementwise_affine=True)
        (resid_dropout): Dropout(p=0.1, inplace=False)
      )
      (16): PhiDecoderLayer(
        (self_attn): PhiAttention(
          (q_proj): Linear(in_features=2560, out_features=2560, bias=True)
          (k_proj): Linear(in_features=2560, out_features=2560, bias=True)
          (v_proj): Linear(in_features=2560, out_features=2560, bias=True)
          (dense): Linear(in_features=2560, out_features=2560, bias=True)
          (rotary_emb): PhiRotaryEmbedding()
        )
        (mlp): MoE(
          (deepspeed_moe): MOELayer(
            (gate): TopKGate(
              (wg): Linear(in_features=2560, out_features=4, bias=False)
            )
            (experts): Experts(
              (deepspeed_experts): ModuleList(
                (0-3): 4 x PhiMLP(
                  (activation_fn): NewGELUActivation()
                  (fc1): Linear(in_features=2560, out_features=10240, bias=True)
                  (fc2): Linear(in_features=10240, out_features=2560, bias=True)
                )
              )
            )
          )
        )
        (input_layernorm): LayerNorm((2560,), eps=1e-05, elementwise_affine=True)
        (resid_dropout): Dropout(p=0.1, inplace=False)
      )
      (17): PhiDecoderLayer(
        (self_attn): PhiAttention(
          (q_proj): Linear(in_features=2560, out_features=2560, bias=True)
          (k_proj): Linear(in_features=2560, out_features=2560, bias=True)
          (v_proj): Linear(in_features=2560, out_features=2560, bias=True)
          (dense): Linear(in_features=2560, out_features=2560, bias=True)
          (rotary_emb): PhiRotaryEmbedding()
        )
        (mlp): PhiMLP(
          (activation_fn): NewGELUActivation()
          (fc1): Linear(in_features=2560, out_features=10240, bias=True)
          (fc2): Linear(in_features=10240, out_features=2560, bias=True)
        )
        (input_layernorm): LayerNorm((2560,), eps=1e-05, elementwise_affine=True)
        (resid_dropout): Dropout(p=0.1, inplace=False)
      )
      (18): PhiDecoderLayer(
        (self_attn): PhiAttention(
          (q_proj): Linear(in_features=2560, out_features=2560, bias=True)
          (k_proj): Linear(in_features=2560, out_features=2560, bias=True)
          (v_proj): Linear(in_features=2560, out_features=2560, bias=True)
          (dense): Linear(in_features=2560, out_features=2560, bias=True)
          (rotary_emb): PhiRotaryEmbedding()
        )
        (mlp): MoE(
          (deepspeed_moe): MOELayer(
            (gate): TopKGate(
              (wg): Linear(in_features=2560, out_features=4, bias=False)
            )
            (experts): Experts(
              (deepspeed_experts): ModuleList(
                (0-3): 4 x PhiMLP(
                  (activation_fn): NewGELUActivation()
                  (fc1): Linear(in_features=2560, out_features=10240, bias=True)
                  (fc2): Linear(in_features=10240, out_features=2560, bias=True)
                )
              )
            )
          )
        )
        (input_layernorm): LayerNorm((2560,), eps=1e-05, elementwise_affine=True)
        (resid_dropout): Dropout(p=0.1, inplace=False)
      )
      (19): PhiDecoderLayer(
        (self_attn): PhiAttention(
          (q_proj): Linear(in_features=2560, out_features=2560, bias=True)
          (k_proj): Linear(in_features=2560, out_features=2560, bias=True)
          (v_proj): Linear(in_features=2560, out_features=2560, bias=True)
          (dense): Linear(in_features=2560, out_features=2560, bias=True)
          (rotary_emb): PhiRotaryEmbedding()
        )
        (mlp): PhiMLP(
          (activation_fn): NewGELUActivation()
          (fc1): Linear(in_features=2560, out_features=10240, bias=True)
          (fc2): Linear(in_features=10240, out_features=2560, bias=True)
        )
        (input_layernorm): LayerNorm((2560,), eps=1e-05, elementwise_affine=True)
        (resid_dropout): Dropout(p=0.1, inplace=False)
      )
      (20): PhiDecoderLayer(
        (self_attn): PhiAttention(
          (q_proj): Linear(in_features=2560, out_features=2560, bias=True)
          (k_proj): Linear(in_features=2560, out_features=2560, bias=True)
          (v_proj): Linear(in_features=2560, out_features=2560, bias=True)
          (dense): Linear(in_features=2560, out_features=2560, bias=True)
          (rotary_emb): PhiRotaryEmbedding()
        )
        (mlp): MoE(
          (deepspeed_moe): MOELayer(
            (gate): TopKGate(
              (wg): Linear(in_features=2560, out_features=4, bias=False)
            )
            (experts): Experts(
              (deepspeed_experts): ModuleList(
                (0-3): 4 x PhiMLP(
                  (activation_fn): NewGELUActivation()
                  (fc1): Linear(in_features=2560, out_features=10240, bias=True)
                  (fc2): Linear(in_features=10240, out_features=2560, bias=True)
                )
              )
            )
          )
        )
        (input_layernorm): LayerNorm((2560,), eps=1e-05, elementwise_affine=True)
        (resid_dropout): Dropout(p=0.1, inplace=False)
      )
      (21): PhiDecoderLayer(
        (self_attn): PhiAttention(
          (q_proj): Linear(in_features=2560, out_features=2560, bias=True)
          (k_proj): Linear(in_features=2560, out_features=2560, bias=True)
          (v_proj): Linear(in_features=2560, out_features=2560, bias=True)
          (dense): Linear(in_features=2560, out_features=2560, bias=True)
          (rotary_emb): PhiRotaryEmbedding()
        )
        (mlp): PhiMLP(
          (activation_fn): NewGELUActivation()
          (fc1): Linear(in_features=2560, out_features=10240, bias=True)
          (fc2): Linear(in_features=10240, out_features=2560, bias=True)
        )
        (input_layernorm): LayerNorm((2560,), eps=1e-05, elementwise_affine=True)
        (resid_dropout): Dropout(p=0.1, inplace=False)
      )
      (22): PhiDecoderLayer(
        (self_attn): PhiAttention(
          (q_proj): Linear(in_features=2560, out_features=2560, bias=True)
          (k_proj): Linear(in_features=2560, out_features=2560, bias=True)
          (v_proj): Linear(in_features=2560, out_features=2560, bias=True)
          (dense): Linear(in_features=2560, out_features=2560, bias=True)
          (rotary_emb): PhiRotaryEmbedding()
        )
        (mlp): MoE(
          (deepspeed_moe): MOELayer(
            (gate): TopKGate(
              (wg): Linear(in_features=2560, out_features=4, bias=False)
            )
            (experts): Experts(
              (deepspeed_experts): ModuleList(
                (0-3): 4 x PhiMLP(
                  (activation_fn): NewGELUActivation()
                  (fc1): Linear(in_features=2560, out_features=10240, bias=True)
                  (fc2): Linear(in_features=10240, out_features=2560, bias=True)
                )
              )
            )
          )
        )
        (input_layernorm): LayerNorm((2560,), eps=1e-05, elementwise_affine=True)
        (resid_dropout): Dropout(p=0.1, inplace=False)
      )
      (23): PhiDecoderLayer(
        (self_attn): PhiAttention(
          (q_proj): Linear(in_features=2560, out_features=2560, bias=True)
          (k_proj): Linear(in_features=2560, out_features=2560, bias=True)
          (v_proj): Linear(in_features=2560, out_features=2560, bias=True)
          (dense): Linear(in_features=2560, out_features=2560, bias=True)
          (rotary_emb): PhiRotaryEmbedding()
        )
        (mlp): PhiMLP(
          (activation_fn): NewGELUActivation()
          (fc1): Linear(in_features=2560, out_features=10240, bias=True)
          (fc2): Linear(in_features=10240, out_features=2560, bias=True)
        )
        (input_layernorm): LayerNorm((2560,), eps=1e-05, elementwise_affine=True)
        (resid_dropout): Dropout(p=0.1, inplace=False)
      )
      (24): PhiDecoderLayer(
        (self_attn): PhiAttention(
          (q_proj): Linear(in_features=2560, out_features=2560, bias=True)
          (k_proj): Linear(in_features=2560, out_features=2560, bias=True)
          (v_proj): Linear(in_features=2560, out_features=2560, bias=True)
          (dense): Linear(in_features=2560, out_features=2560, bias=True)
          (rotary_emb): PhiRotaryEmbedding()
        )
        (mlp): MoE(
          (deepspeed_moe): MOELayer(
            (gate): TopKGate(
              (wg): Linear(in_features=2560, out_features=4, bias=False)
            )
            (experts): Experts(
              (deepspeed_experts): ModuleList(
                (0-3): 4 x PhiMLP(
                  (activation_fn): NewGELUActivation()
                  (fc1): Linear(in_features=2560, out_features=10240, bias=True)
                  (fc2): Linear(in_features=10240, out_features=2560, bias=True)
                )
              )
            )
          )
        )
        (input_layernorm): LayerNorm((2560,), eps=1e-05, elementwise_affine=True)
        (resid_dropout): Dropout(p=0.1, inplace=False)
      )
      (25): PhiDecoderLayer(
        (self_attn): PhiAttention(
          (q_proj): Linear(in_features=2560, out_features=2560, bias=True)
          (k_proj): Linear(in_features=2560, out_features=2560, bias=True)
          (v_proj): Linear(in_features=2560, out_features=2560, bias=True)
          (dense): Linear(in_features=2560, out_features=2560, bias=True)
          (rotary_emb): PhiRotaryEmbedding()
        )
        (mlp): PhiMLP(
          (activation_fn): NewGELUActivation()
          (fc1): Linear(in_features=2560, out_features=10240, bias=True)
          (fc2): Linear(in_features=10240, out_features=2560, bias=True)
        )
        (input_layernorm): LayerNorm((2560,), eps=1e-05, elementwise_affine=True)
        (resid_dropout): Dropout(p=0.1, inplace=False)
      )
      (26): PhiDecoderLayer(
        (self_attn): PhiAttention(
          (q_proj): Linear(in_features=2560, out_features=2560, bias=True)
          (k_proj): Linear(in_features=2560, out_features=2560, bias=True)
          (v_proj): Linear(in_features=2560, out_features=2560, bias=True)
          (dense): Linear(in_features=2560, out_features=2560, bias=True)
          (rotary_emb): PhiRotaryEmbedding()
        )
        (mlp): MoE(
          (deepspeed_moe): MOELayer(
            (gate): TopKGate(
              (wg): Linear(in_features=2560, out_features=4, bias=False)
            )
            (experts): Experts(
              (deepspeed_experts): ModuleList(
                (0-3): 4 x PhiMLP(
                  (activation_fn): NewGELUActivation()
                  (fc1): Linear(in_features=2560, out_features=10240, bias=True)
                  (fc2): Linear(in_features=10240, out_features=2560, bias=True)
                )
              )
            )
          )
        )
        (input_layernorm): LayerNorm((2560,), eps=1e-05, elementwise_affine=True)
        (resid_dropout): Dropout(p=0.1, inplace=False)
      )
      (27): PhiDecoderLayer(
        (self_attn): PhiAttention(
          (q_proj): Linear(in_features=2560, out_features=2560, bias=True)
          (k_proj): Linear(in_features=2560, out_features=2560, bias=True)
          (v_proj): Linear(in_features=2560, out_features=2560, bias=True)
          (dense): Linear(in_features=2560, out_features=2560, bias=True)
          (rotary_emb): PhiRotaryEmbedding()
        )
        (mlp): PhiMLP(
          (activation_fn): NewGELUActivation()
          (fc1): Linear(in_features=2560, out_features=10240, bias=True)
          (fc2): Linear(in_features=10240, out_features=2560, bias=True)
        )
        (input_layernorm): LayerNorm((2560,), eps=1e-05, elementwise_affine=True)
        (resid_dropout): Dropout(p=0.1, inplace=False)
      )
      (28): PhiDecoderLayer(
        (self_attn): PhiAttention(
          (q_proj): Linear(in_features=2560, out_features=2560, bias=True)
          (k_proj): Linear(in_features=2560, out_features=2560, bias=True)
          (v_proj): Linear(in_features=2560, out_features=2560, bias=True)
          (dense): Linear(in_features=2560, out_features=2560, bias=True)
          (rotary_emb): PhiRotaryEmbedding()
        )
        (mlp): MoE(
          (deepspeed_moe): MOELayer(
            (gate): TopKGate(
              (wg): Linear(in_features=2560, out_features=4, bias=False)
            )
            (experts): Experts(
              (deepspeed_experts): ModuleList(
                (0-3): 4 x PhiMLP(
                  (activation_fn): NewGELUActivation()
                  (fc1): Linear(in_features=2560, out_features=10240, bias=True)
                  (fc2): Linear(in_features=10240, out_features=2560, bias=True)
                )
              )
            )
          )
        )
        (input_layernorm): LayerNorm((2560,), eps=1e-05, elementwise_affine=True)
        (resid_dropout): Dropout(p=0.1, inplace=False)
      )
      (29): PhiDecoderLayer(
        (self_attn): PhiAttention(
          (q_proj): Linear(in_features=2560, out_features=2560, bias=True)
          (k_proj): Linear(in_features=2560, out_features=2560, bias=True)
          (v_proj): Linear(in_features=2560, out_features=2560, bias=True)
          (dense): Linear(in_features=2560, out_features=2560, bias=True)
          (rotary_emb): PhiRotaryEmbedding()
        )
        (mlp): PhiMLP(
          (activation_fn): NewGELUActivation()
          (fc1): Linear(in_features=2560, out_features=10240, bias=True)
          (fc2): Linear(in_features=10240, out_features=2560, bias=True)
        )
        (input_layernorm): LayerNorm((2560,), eps=1e-05, elementwise_affine=True)
        (resid_dropout): Dropout(p=0.1, inplace=False)
      )
      (30): PhiDecoderLayer(
        (self_attn): PhiAttention(
          (q_proj): Linear(in_features=2560, out_features=2560, bias=True)
          (k_proj): Linear(in_features=2560, out_features=2560, bias=True)
          (v_proj): Linear(in_features=2560, out_features=2560, bias=True)
          (dense): Linear(in_features=2560, out_features=2560, bias=True)
          (rotary_emb): PhiRotaryEmbedding()
        )
        (mlp): MoE(
          (deepspeed_moe): MOELayer(
            (gate): TopKGate(
              (wg): Linear(in_features=2560, out_features=4, bias=False)
            )
            (experts): Experts(
              (deepspeed_experts): ModuleList(
                (0-3): 4 x PhiMLP(
                  (activation_fn): NewGELUActivation()
                  (fc1): Linear(in_features=2560, out_features=10240, bias=True)
                  (fc2): Linear(in_features=10240, out_features=2560, bias=True)
                )
              )
            )
          )
        )
        (input_layernorm): LayerNorm((2560,), eps=1e-05, elementwise_affine=True)
        (resid_dropout): Dropout(p=0.1, inplace=False)
      )
      (31): PhiDecoderLayer(
        (self_attn): PhiAttention(
          (q_proj): Linear(in_features=2560, out_features=2560, bias=True)
          (k_proj): Linear(in_features=2560, out_features=2560, bias=True)
          (v_proj): Linear(in_features=2560, out_features=2560, bias=True)
          (dense): Linear(in_features=2560, out_features=2560, bias=True)
          (rotary_emb): PhiRotaryEmbedding()
        )
        (mlp): PhiMLP(
          (activation_fn): NewGELUActivation()
          (fc1): Linear(in_features=2560, out_features=10240, bias=True)
          (fc2): Linear(in_features=10240, out_features=2560, bias=True)
        )
        (input_layernorm): LayerNorm((2560,), eps=1e-05, elementwise_affine=True)
        (resid_dropout): Dropout(p=0.1, inplace=False)
      )
    )
    (final_layernorm): LayerNorm((2560,), eps=1e-05, elementwise_affine=True)
    (image_tower): CLIPVisionTower(
      (image_tower): CLIPVisionModel(
        (vision_model): CLIPVisionTransformer(
          (embeddings): CLIPVisionEmbeddings(
            (patch_embedding): Conv2d(3, 1024, kernel_size=(14, 14), stride=(14, 14), bias=False)
            (position_embedding): Embedding(577, 1024)
          )
          (pre_layrnorm): LayerNorm((1024,), eps=1e-05, elementwise_affine=True)
          (encoder): CLIPEncoder(
            (layers): ModuleList(
              (0-23): 24 x CLIPEncoderLayer(
                (self_attn): CLIPAttention(
                  (k_proj): Linear(in_features=1024, out_features=1024, bias=True)
                  (v_proj): Linear(in_features=1024, out_features=1024, bias=True)
                  (q_proj): Linear(in_features=1024, out_features=1024, bias=True)
                  (out_proj): Linear(in_features=1024, out_features=1024, bias=True)
                )
                (layer_norm1): LayerNorm((1024,), eps=1e-05, elementwise_affine=True)
                (mlp): CLIPMLP(
                  (activation_fn): QuickGELUActivation()
                  (fc1): Linear(in_features=1024, out_features=4096, bias=True)
                  (fc2): Linear(in_features=4096, out_features=1024, bias=True)
                )
                (layer_norm2): LayerNorm((1024,), eps=1e-05, elementwise_affine=True)
              )
            )
          )
          (post_layernorm): LayerNorm((1024,), eps=1e-05, elementwise_affine=True)
        )
      )
    )
    (mm_projector): build_projector(
      (image_spatial_proj): Sequential(
        (0): Linear(in_features=1024, out_features=2560, bias=True)
        (1): GELU(approximate='none')
        (2): Linear(in_features=2560, out_features=2560, bias=True)
      )
      (video_patch_proj): Identity()
      (video_spatial_proj): Identity()
      (video_temproal_proj): Identity()
      (video_global_proj): Identity()
    )
  )
  (lm_head): Linear(in_features=2560, out_features=51200, bias=False)
)
model.layers.0.mlp.deepspeed_moe.gate.wg.weight
model.layers.0.mlp.deepspeed_moe.experts.deepspeed_experts.0.fc1.weight
model.layers.0.mlp.deepspeed_moe.experts.deepspeed_experts.0.fc1.bias
model.layers.0.mlp.deepspeed_moe.experts.deepspeed_experts.0.fc2.weight
model.layers.0.mlp.deepspeed_moe.experts.deepspeed_experts.0.fc2.bias
model.layers.0.mlp.deepspeed_moe.experts.deepspeed_experts.1.fc1.weight
…
