…
  File "/ML-A800/home/guoshuyue/anaconda3/envs/datacomp1/lib/python3.10/site-packages/torch/serialization.py", line 266, in _cuda_deserialize
    device = validate_cuda_device(location)
  File "/ML-A800/home/guoshuyue/anaconda3/envs/datacomp1/lib/python3.10/site-packages/torch/serialization.py", line 250, in validate_cuda_device
    raise RuntimeError('Attempting to deserialize object on a CUDA '
RuntimeError: Attempting to deserialize object on a CUDA device but torch.cuda.is_available() is False. If you are running on a CPU-only machine, please use torch.load with map_location=torch.device('cpu') to map your storages to the CPU.
FasterViT(
  (patch_embed): PatchEmbed(
    (proj): Identity()
    (conv_down): Sequential(
      (0): Conv2d(3, 64, kernel_size=(3, 3), stride=(2, 2), padding=(1, 1), bias=False)
      (1): BatchNorm2d(64, eps=0.0001, momentum=0.1, affine=True, track_running_stats=True)
      (2): ReLU()
      (3): Conv2d(64, 96, kernel_size=(3, 3), stride=(2, 2), padding=(1, 1), bias=False)
      (4): BatchNorm2d(96, eps=0.0001, momentum=0.1, affine=True, track_running_stats=True)
      (5): ReLU()
    )
  )
  (levels): ModuleList(
    (0): FasterViTLayer(
      (blocks): ModuleList(
        (0): ConvBlock(
          (conv1): Conv2d(96, 96, kernel_size=(3, 3), stride=(1, 1), padding=(1, 1))
          (norm1): BatchNorm2d(96, eps=1e-05, momentum=0.1, affine=True, track_running_stats=True)
          (act1): GELU(approximate='none')
          (conv2): Conv2d(96, 96, kernel_size=(3, 3), stride=(1, 1), padding=(1, 1))
          (norm2): BatchNorm2d(96, eps=1e-05, momentum=0.1, affine=True, track_running_stats=True)
          (drop_path): Identity()
        )
        (1): ConvBlock(
          (conv1): Conv2d(96, 96, kernel_size=(3, 3), stride=(1, 1), padding=(1, 1))
          (norm1): BatchNorm2d(96, eps=1e-05, momentum=0.1, affine=True, track_running_stats=True)
          (act1): GELU(approximate='none')
          (conv2): Conv2d(96, 96, kernel_size=(3, 3), stride=(1, 1), padding=(1, 1))
          (norm2): BatchNorm2d(96, eps=1e-05, momentum=0.1, affine=True, track_running_stats=True)
          (drop_path): DropPath(drop_prob=0.011)
        )
        (2): ConvBlock(
          (conv1): Conv2d(96, 96, kernel_size=(3, 3), stride=(1, 1), padding=(1, 1))
          (norm1): BatchNorm2d(96, eps=1e-05, momentum=0.1, affine=True, track_running_stats=True)
          (act1): GELU(approximate='none')
          (conv2): Conv2d(96, 96, kernel_size=(3, 3), stride=(1, 1), padding=(1, 1))
          (norm2): BatchNorm2d(96, eps=1e-05, momentum=0.1, affine=True, track_running_stats=True)
          (drop_path): DropPath(drop_prob=0.022)
        )
      )
      (downsample): Downsample(
        (norm): LayerNorm2d((96,), eps=1e-06, elementwise_affine=True)
        (reduction): Sequential(
          (0): Conv2d(96, 192, kernel_size=(3, 3), stride=(2, 2), padding=(1, 1), bias=False)
        )
      )
    )
    (1): FasterViTLayer(
      (blocks): ModuleList(
        (0): ConvBlock(
          (conv1): Conv2d(192, 192, kernel_size=(3, 3), stride=(1, 1), padding=(1, 1))
          (norm1): BatchNorm2d(192, eps=1e-05, momentum=0.1, affine=True, track_running_stats=True)
          (act1): GELU(approximate='none')
          (conv2): Conv2d(192, 192, kernel_size=(3, 3), stride=(1, 1), padding=(1, 1))
          (norm2): BatchNorm2d(192, eps=1e-05, momentum=0.1, affine=True, track_running_stats=True)
          (drop_path): DropPath(drop_prob=0.033)
        )
        (1): ConvBlock(
          (conv1): Conv2d(192, 192, kernel_size=(3, 3), stride=(1, 1), padding=(1, 1))
          (norm1): BatchNorm2d(192, eps=1e-05, momentum=0.1, affine=True, track_running_stats=True)
          (act1): GELU(approximate='none')
          (conv2): Conv2d(192, 192, kernel_size=(3, 3), stride=(1, 1), padding=(1, 1))
          (norm2): BatchNorm2d(192, eps=1e-05, momentum=0.1, affine=True, track_running_stats=True)
          (drop_path): DropPath(drop_prob=0.044)
        )
        (2): ConvBlock(
          (conv1): Conv2d(192, 192, kernel_size=(3, 3), stride=(1, 1), padding=(1, 1))
          (norm1): BatchNorm2d(192, eps=1e-05, momentum=0.1, affine=True, track_running_stats=True)
          (act1): GELU(approximate='none')
          (conv2): Conv2d(192, 192, kernel_size=(3, 3), stride=(1, 1), padding=(1, 1))
          (norm2): BatchNorm2d(192, eps=1e-05, momentum=0.1, affine=True, track_running_stats=True)
          (drop_path): DropPath(drop_prob=0.056)
        )
      )
      (downsample): Downsample(
        (norm): LayerNorm2d((192,), eps=1e-06, elementwise_affine=True)
        (reduction): Sequential(
          (0): Conv2d(192, 384, kernel_size=(3, 3), stride=(2, 2), padding=(1, 1), bias=False)
        )
      )
    )
    (2): FasterViTLayer(
      (blocks): ModuleList(
        (0): HAT(
          (pos_embed): PosEmbMLPSwinv1D(
            (cpb_mlp): Sequential(
              (0): Linear(in_features=2, out_features=512, bias=True)
              (1): ReLU()
              (2): Linear(in_features=512, out_features=384, bias=False)
            )
          )
          (norm1): LayerNorm((384,), eps=1e-05, elementwise_affine=True)
          (attn): WindowAttention(
            (qkv): Linear(in_features=384, out_features=1152, bias=True)
            (attn_drop): Dropout(p=0.0, inplace=False)
            (proj): Linear(in_features=384, out_features=384, bias=True)
            (proj_drop): Dropout(p=0.0, inplace=False)
            (pos_emb_funct): PosEmbMLPSwinv2D(
              (cpb_mlp): Sequential(
                (0): Linear(in_features=2, out_features=512, bias=True)
                (1): ReLU(inplace=True)
                (2): Linear(in_features=512, out_features=8, bias=False)
              )
            )
          )
          (drop_path): DropPath(drop_prob=0.067)
          (norm2): LayerNorm((384,), eps=1e-05, elementwise_affine=True)
          (mlp): Mlp(
            (fc1): Linear(in_features=384, out_features=1536, bias=True)
            (act): GELU(approximate='none')
            (fc2): Linear(in_features=1536, out_features=384, bias=True)
            (drop): Dropout(p=0.0, inplace=False)
          )
          (hat_norm1): LayerNorm((384,), eps=1e-05, elementwise_affine=True)
          (hat_norm2): LayerNorm((384,), eps=1e-05, elementwise_affine=True)
          (hat_attn): WindowAttention(
            (qkv): Linear(in_features=384, out_features=1152, bias=True)
            (attn_drop): Dropout(p=0.0, inplace=False)
            (proj): Linear(in_features=384, out_features=384, bias=True)
            (proj_drop): Dropout(p=0.0, inplace=False)
            (pos_emb_funct): PosEmbMLPSwinv2D(
              (cpb_mlp): Sequential(
                (0): Linear(in_features=2, out_features=512, bias=True)
                (1): ReLU(inplace=True)
                (2): Linear(in_features=512, out_features=8, bias=False)
              )
            )
          )
          (hat_mlp): Mlp(
            (fc1): Linear(in_features=384, out_features=1536, bias=True)
            (act): GELU(approximate='none')
            (fc2): Linear(in_features=1536, out_features=384, bias=True)
            (drop): Dropout(p=0.0, inplace=False)
          )
          (hat_drop_path): DropPath(drop_prob=0.067)
          (hat_pos_embed): PosEmbMLPSwinv1D(
            (cpb_mlp): Sequential(
              (0): Linear(in_features=2, out_features=512, bias=True)
              (1): ReLU()
              (2): Linear(in_features=512, out_features=384, bias=False)
            )
          )
          (upsampler): Upsample(size=7, mode='nearest')
        )
        (1): HAT(
          (pos_embed): PosEmbMLPSwinv1D(
            (cpb_mlp): Sequential(
              (0): Linear(in_features=2, out_features=512, bias=True)
              (1): ReLU()
              (2): Linear(in_features=512, out_features=384, bias=False)
            )
          )
          (norm1): LayerNorm((384,), eps=1e-05, elementwise_affine=True)
          (attn): WindowAttention(
            (qkv): Linear(in_features=384, out_features=1152, bias=True)
            (attn_drop): Dropout(p=0.0, inplace=False)
            (proj): Linear(in_features=384, out_features=384, bias=True)
            (proj_drop): Dropout(p=0.0, inplace=False)
            (pos_emb_funct): PosEmbMLPSwinv2D(
              (cpb_mlp): Sequential(
                (0): Linear(in_features=2, out_features=512, bias=True)
                (1): ReLU(inplace=True)
                (2): Linear(in_features=512, out_features=8, bias=False)
              )
            )
          )
          (drop_path): DropPath(drop_prob=0.078)
          (norm2): LayerNorm((384,), eps=1e-05, elementwise_affine=True)
          (mlp): Mlp(
            (fc1): Linear(in_features=384, out_features=1536, bias=True)
            (act): GELU(approximate='none')
            (fc2): Linear(in_features=1536, out_features=384, bias=True)
            (drop): Dropout(p=0.0, inplace=False)
          )
          (hat_norm1): LayerNorm((384,), eps=1e-05, elementwise_affine=True)
          (hat_norm2): LayerNorm((384,), eps=1e-05, elementwise_affine=True)
          (hat_attn): WindowAttention(
            (qkv): Linear(in_features=384, out_features=1152, bias=True)
            (attn_drop): Dropout(p=0.0, inplace=False)
            (proj): Linear(in_features=384, out_features=384, bias=True)
            (proj_drop): Dropout(p=0.0, inplace=False)
            (pos_emb_funct): PosEmbMLPSwinv2D(
              (cpb_mlp): Sequential(
                (0): Linear(in_features=2, out_features=512, bias=True)
                (1): ReLU(inplace=True)
                (2): Linear(in_features=512, out_features=8, bias=False)
              )
            )
          )
          (hat_mlp): Mlp(
            (fc1): Linear(in_features=384, out_features=1536, bias=True)
            (act): GELU(approximate='none')
            (fc2): Linear(in_features=1536, out_features=384, bias=True)
            (drop): Dropout(p=0.0, inplace=False)
          )
          (hat_drop_path): DropPath(drop_prob=0.078)
          (hat_pos_embed): PosEmbMLPSwinv1D(
            (cpb_mlp): Sequential(
              (0): Linear(in_features=2, out_features=512, bias=True)
              (1): ReLU()
              (2): Linear(in_features=512, out_features=384, bias=False)
            )
          )
          (upsampler): Upsample(size=7, mode='nearest')
        )
        (2): HAT(
          (pos_embed): PosEmbMLPSwinv1D(
            (cpb_mlp): Sequential(
              (0): Linear(in_features=2, out_features=512, bias=True)
              (1): ReLU()
              (2): Linear(in_features=512, out_features=384, bias=False)
            )
          )
          (norm1): LayerNorm((384,), eps=1e-05, elementwise_affine=True)
          (attn): WindowAttention(
            (qkv): Linear(in_features=384, out_features=1152, bias=True)
            (attn_drop): Dropout(p=0.0, inplace=False)
            (proj): Linear(in_features=384, out_features=384, bias=True)
            (proj_drop): Dropout(p=0.0, inplace=False)
            (pos_emb_funct): PosEmbMLPSwinv2D(
              (cpb_mlp): Sequential(
                (0): Linear(in_features=2, out_features=512, bias=True)
                (1): ReLU(inplace=True)
                (2): Linear(in_features=512, out_features=8, bias=False)
              )
            )
          )
          (drop_path): DropPath(drop_prob=0.089)
          (norm2): LayerNorm((384,), eps=1e-05, elementwise_affine=True)
          (mlp): Mlp(
            (fc1): Linear(in_features=384, out_features=1536, bias=True)
            (act): GELU(approximate='none')
            (fc2): Linear(in_features=1536, out_features=384, bias=True)
            (drop): Dropout(p=0.0, inplace=False)
          )
          (hat_norm1): LayerNorm((384,), eps=1e-05, elementwise_affine=True)
          (hat_norm2): LayerNorm((384,), eps=1e-05, elementwise_affine=True)
          (hat_attn): WindowAttention(
            (qkv): Linear(in_features=384, out_features=1152, bias=True)
            (attn_drop): Dropout(p=0.0, inplace=False)
            (proj): Linear(in_features=384, out_features=384, bias=True)
            (proj_drop): Dropout(p=0.0, inplace=False)
            (pos_emb_funct): PosEmbMLPSwinv2D(
              (cpb_mlp): Sequential(
                (0): Linear(in_features=2, out_features=512, bias=True)
                (1): ReLU(inplace=True)
                (2): Linear(in_features=512, out_features=8, bias=False)
              )
            )
          )
          (hat_mlp): Mlp(
            (fc1): Linear(in_features=384, out_features=1536, bias=True)
            (act): GELU(approximate='none')
            (fc2): Linear(in_features=1536, out_features=384, bias=True)
            (drop): Dropout(p=0.0, inplace=False)
          )
          (hat_drop_path): DropPath(drop_prob=0.089)
          (hat_pos_embed): PosEmbMLPSwinv1D(
            (cpb_mlp): Sequential(
              (0): Linear(in_features=2, out_features=512, bias=True)
              (1): ReLU()
              (2): Linear(in_features=512, out_features=384, bias=False)
            )
          )
          (upsampler): Upsample(size=7, mode='nearest')
        )
        (3): HAT(
          (pos_embed): PosEmbMLPSwinv1D(
            (cpb_mlp): Sequential(
              (0): Linear(in_features=2, out_features=512, bias=True)
              (1): ReLU()
              (2): Linear(in_features=512, out_features=384, bias=False)
            )
          )
          (norm1): LayerNorm((384,), eps=1e-05, elementwise_affine=True)
          (attn): WindowAttention(
            (qkv): Linear(in_features=384, out_features=1152, bias=True)
            (attn_drop): Dropout(p=0.0, inplace=False)
            (proj): Linear(in_features=384, out_features=384, bias=True)
            (proj_drop): Dropout(p=0.0, inplace=False)
            (pos_emb_funct): PosEmbMLPSwinv2D(
              (cpb_mlp): Sequential(
                (0): Linear(in_features=2, out_features=512, bias=True)
                (1): ReLU(inplace=True)
                (2): Linear(in_features=512, out_features=8, bias=False)
              )
            )
          )
          (drop_path): DropPath(drop_prob=0.100)
          (norm2): LayerNorm((384,), eps=1e-05, elementwise_affine=True)
          (mlp): Mlp(
            (fc1): Linear(in_features=384, out_features=1536, bias=True)
            (act): GELU(approximate='none')
            (fc2): Linear(in_features=1536, out_features=384, bias=True)
            (drop): Dropout(p=0.0, inplace=False)
          )
          (hat_norm1): LayerNorm((384,), eps=1e-05, elementwise_affine=True)
          (hat_norm2): LayerNorm((384,), eps=1e-05, elementwise_affine=True)
          (hat_attn): WindowAttention(
            (qkv): Linear(in_features=384, out_features=1152, bias=True)
            (attn_drop): Dropout(p=0.0, inplace=False)
            (proj): Linear(in_features=384, out_features=384, bias=True)
            (proj_drop): Dropout(p=0.0, inplace=False)
            (pos_emb_funct): PosEmbMLPSwinv2D(
              (cpb_mlp): Sequential(
                (0): Linear(in_features=2, out_features=512, bias=True)
                (1): ReLU(inplace=True)
                (2): Linear(in_features=512, out_features=8, bias=False)
              )
            )
          )
          (hat_mlp): Mlp(
            (fc1): Linear(in_features=384, out_features=1536, bias=True)
            (act): GELU(approximate='none')
            (fc2): Linear(in_features=1536, out_features=384, bias=True)
            (drop): Dropout(p=0.0, inplace=False)
          )
          (hat_drop_path): DropPath(drop_prob=0.100)
          (hat_pos_embed): PosEmbMLPSwinv1D(
            (cpb_mlp): Sequential(
              (0): Linear(in_features=2, out_features=512, bias=True)
              (1): ReLU()
              (2): Linear(in_features=512, out_features=384, bias=False)
            )
          )
          (upsampler): Upsample(size=7, mode='nearest')
        )
        (4): HAT(
          (pos_embed): PosEmbMLPSwinv1D(
            (cpb_mlp): Sequential(
              (0): Linear(in_features=2, out_features=512, bias=True)
              (1): ReLU()
              (2): Linear(in_features=512, out_features=384, bias=False)
            )
          )
          (norm1): LayerNorm((384,), eps=1e-05, elementwise_affine=True)
          (attn): WindowAttention(
            (qkv): Linear(in_features=384, out_features=1152, bias=True)
            (attn_drop): Dropout(p=0.0, inplace=False)
            (proj): Linear(in_features=384, out_features=384, bias=True)
            (proj_drop): Dropout(p=0.0, inplace=False)
            (pos_emb_funct): PosEmbMLPSwinv2D(
              (cpb_mlp): Sequential(
                (0): Linear(in_features=2, out_features=512, bias=True)
                (1): ReLU(inplace=True)
                (2): Linear(in_features=512, out_features=8, bias=False)
              )
            )
          )
          (drop_path): DropPath(drop_prob=0.111)
          (norm2): LayerNorm((384,), eps=1e-05, elementwise_affine=True)
          (mlp): Mlp(
            (fc1): Linear(in_features=384, out_features=1536, bias=True)
            (act): GELU(approximate='none')
            (fc2): Linear(in_features=1536, out_features=384, bias=True)
            (drop): Dropout(p=0.0, inplace=False)
          )
          (hat_norm1): LayerNorm((384,), eps=1e-05, elementwise_affine=True)
          (hat_norm2): LayerNorm((384,), eps=1e-05, elementwise_affine=True)
          (hat_attn): WindowAttention(
            (qkv): Linear(in_features=384, out_features=1152, bias=True)
            (attn_drop): Dropout(p=0.0, inplace=False)
            (proj): Linear(in_features=384, out_features=384, bias=True)
            (proj_drop): Dropout(p=0.0, inplace=False)
            (pos_emb_funct): PosEmbMLPSwinv2D(
              (cpb_mlp): Sequential(
                (0): Linear(in_features=2, out_features=512, bias=True)
                (1): ReLU(inplace=True)
                (2): Linear(in_features=512, out_features=8, bias=False)
              )
            )
          )
          (hat_mlp): Mlp(
            (fc1): Linear(in_features=384, out_features=1536, bias=True)
            (act): GELU(approximate='none')
            (fc2): Linear(in_features=1536, out_features=384, bias=True)
            (drop): Dropout(p=0.0, inplace=False)
          )
          (hat_drop_path): DropPath(drop_prob=0.111)
          (hat_pos_embed): PosEmbMLPSwinv1D(
            (cpb_mlp): Sequential(
              (0): Linear(in_features=2, out_features=512, bias=True)
              (1): ReLU()
              (2): Linear(in_features=512, out_features=384, bias=False)
            )
          )
          (upsampler): Upsample(size=7, mode='nearest')
        )
        (5): HAT(
          (pos_embed): PosEmbMLPSwinv1D(
            (cpb_mlp): Sequential(
              (0): Linear(in_features=2, out_features=512, bias=True)
              (1): ReLU()
              (2): Linear(in_features=512, out_features=384, bias=False)
            )
          )
          (norm1): LayerNorm((384,), eps=1e-05, elementwise_affine=True)
          (attn): WindowAttention(
            (qkv): Linear(in_features=384, out_features=1152, bias=True)
            (attn_drop): Dropout(p=0.0, inplace=False)
            (proj): Linear(in_features=384, out_features=384, bias=True)
            (proj_drop): Dropout(p=0.0, inplace=False)
            (pos_emb_funct): PosEmbMLPSwinv2D(
              (cpb_mlp): Sequential(
                (0): Linear(in_features=2, out_features=512, bias=True)
                (1): ReLU(inplace=True)
                (2): Linear(in_features=512, out_features=8, bias=False)
              )
            )
          )
          (drop_path): DropPath(drop_prob=0.122)
          (norm2): LayerNorm((384,), eps=1e-05, elementwise_affine=True)
          (mlp): Mlp(
            (fc1): Linear(in_features=384, out_features=1536, bias=True)
            (act): GELU(approximate='none')
            (fc2): Linear(in_features=1536, out_features=384, bias=True)
            (drop): Dropout(p=0.0, inplace=False)
          )
          (hat_norm1): LayerNorm((384,), eps=1e-05, elementwise_affine=True)
          (hat_norm2): LayerNorm((384,), eps=1e-05, elementwise_affine=True)
          (hat_attn): WindowAttention(
            (qkv): Linear(in_features=384, out_features=1152, bias=True)
            (attn_drop): Dropout(p=0.0, inplace=False)
            (proj): Linear(in_features=384, out_features=384, bias=True)
            (proj_drop): Dropout(p=0.0, inplace=False)
            (pos_emb_funct): PosEmbMLPSwinv2D(
              (cpb_mlp): Sequential(
                (0): Linear(in_features=2, out_features=512, bias=True)
                (1): ReLU(inplace=True)
                (2): Linear(in_features=512, out_features=8, bias=False)
              )
            )
          )
          (hat_mlp): Mlp(
            (fc1): Linear(in_features=384, out_features=1536, bias=True)
            (act): GELU(approximate='none')
            (fc2): Linear(in_features=1536, out_features=384, bias=True)
            (drop): Dropout(p=0.0, inplace=False)
          )
          (hat_drop_path): DropPath(drop_prob=0.122)
          (hat_pos_embed): PosEmbMLPSwinv1D(
            (cpb_mlp): Sequential(
              (0): Linear(in_features=2, out_features=512, bias=True)
              (1): ReLU()
              (2): Linear(in_features=512, out_features=384, bias=False)
            )
          )
          (upsampler): Upsample(size=7, mode='nearest')
        )
        (6): HAT(
          (pos_embed): PosEmbMLPSwinv1D(
            (cpb_mlp): Sequential(
              (0): Linear(in_features=2, out_features=512, bias=True)
              (1): ReLU()
              (2): Linear(in_features=512, out_features=384, bias=False)
            )
          )
          (norm1): LayerNorm((384,), eps=1e-05, elementwise_affine=True)
          (attn): WindowAttention(
            (qkv): Linear(in_features=384, out_features=1152, bias=True)
            (attn_drop): Dropout(p=0.0, inplace=False)
            (proj): Linear(in_features=384, out_features=384, bias=True)
            (proj_drop): Dropout(p=0.0, inplace=False)
            (pos_emb_funct): PosEmbMLPSwinv2D(
              (cpb_mlp): Sequential(
                (0): Linear(in_features=2, out_features=512, bias=True)
                (1): ReLU(inplace=True)
                (2): Linear(in_features=512, out_features=8, bias=False)
              )
            )
          )
          (drop_path): DropPath(drop_prob=0.133)
          (norm2): LayerNorm((384,), eps=1e-05, elementwise_affine=True)
          (mlp): Mlp(
            (fc1): Linear(in_features=384, out_features=1536, bias=True)
            (act): GELU(approximate='none')
            (fc2): Linear(in_features=1536, out_features=384, bias=True)
            (drop): Dropout(p=0.0, inplace=False)
          )
          (hat_norm1): LayerNorm((384,), eps=1e-05, elementwise_affine=True)
          (hat_norm2): LayerNorm((384,), eps=1e-05, elementwise_affine=True)
          (hat_attn): WindowAttention(
            (qkv): Linear(in_features=384, out_features=1152, bias=True)
            (attn_drop): Dropout(p=0.0, inplace=False)
            (proj): Linear(in_features=384, out_features=384, bias=True)
            (proj_drop): Dropout(p=0.0, inplace=False)
            (pos_emb_funct): PosEmbMLPSwinv2D(
              (cpb_mlp): Sequential(
                (0): Linear(in_features=2, out_features=512, bias=True)
                (1): ReLU(inplace=True)
                (2): Linear(in_features=512, out_features=8, bias=False)
              )
            )
          )
          (hat_mlp): Mlp(
            (fc1): Linear(in_features=384, out_features=1536, bias=True)
            (act): GELU(approximate='none')
            (fc2): Linear(in_features=1536, out_features=384, bias=True)
            (drop): Dropout(p=0.0, inplace=False)
          )
          (hat_drop_path): DropPath(drop_prob=0.133)
          (hat_pos_embed): PosEmbMLPSwinv1D(
            (cpb_mlp): Sequential(
              (0): Linear(in_features=2, out_features=512, bias=True)
              (1): ReLU()
              (2): Linear(in_features=512, out_features=384, bias=False)
            )
          )
          (upsampler): Upsample(size=7, mode='nearest')
        )
        (7): HAT(
          (pos_embed): PosEmbMLPSwinv1D(
            (cpb_mlp): Sequential(
              (0): Linear(in_features=2, out_features=512, bias=True)
              (1): ReLU()
              (2): Linear(in_features=512, out_features=384, bias=False)
            )
          )
          (norm1): LayerNorm((384,), eps=1e-05, elementwise_affine=True)
          (attn): WindowAttention(
            (qkv): Linear(in_features=384, out_features=1152, bias=True)
            (attn_drop): Dropout(p=0.0, inplace=False)
            (proj): Linear(in_features=384, out_features=384, bias=True)
            (proj_drop): Dropout(p=0.0, inplace=False)
            (pos_emb_funct): PosEmbMLPSwinv2D(
              (cpb_mlp): Sequential(
                (0): Linear(in_features=2, out_features=512, bias=True)
                (1): ReLU(inplace=True)
                (2): Linear(in_features=512, out_features=8, bias=False)
              )
            )
          )
          (drop_path): DropPath(drop_prob=0.144)
          (norm2): LayerNorm((384,), eps=1e-05, elementwise_affine=True)
          (mlp): Mlp(
            (fc1): Linear(in_features=384, out_features=1536, bias=True)
            (act): GELU(approximate='none')
            (fc2): Linear(in_features=1536, out_features=384, bias=True)
            (drop): Dropout(p=0.0, inplace=False)
          )
          (hat_norm1): LayerNorm((384,), eps=1e-05, elementwise_affine=True)
          (hat_norm2): LayerNorm((384,), eps=1e-05, elementwise_affine=True)
          (hat_attn): WindowAttention(
            (qkv): Linear(in_features=384, out_features=1152, bias=True)
            (attn_drop): Dropout(p=0.0, inplace=False)
            (proj): Linear(in_features=384, out_features=384, bias=True)
            (proj_drop): Dropout(p=0.0, inplace=False)
            (pos_emb_funct): PosEmbMLPSwinv2D(
              (cpb_mlp): Sequential(
                (0): Linear(in_features=2, out_features=512, bias=True)
                (1): ReLU(inplace=True)
                (2): Linear(in_features=512, out_features=8, bias=False)
              )
            )
          )
          (hat_mlp): Mlp(
            (fc1): Linear(in_features=384, out_features=1536, bias=True)
            (act): GELU(approximate='none')
            (fc2): Linear(in_features=1536, out_features=384, bias=True)
            (drop): Dropout(p=0.0, inplace=False)
          )
          (hat_drop_path): DropPath(drop_prob=0.144)
          (hat_pos_embed): PosEmbMLPSwinv1D(
            (cpb_mlp): Sequential(
              (0): Linear(in_features=2, out_features=512, bias=True)
              (1): ReLU()
              (2): Linear(in_features=512, out_features=384, bias=False)
            )
          )
          (upsampler): Upsample(size=7, mode='nearest')
        )
      )
      (downsample): Downsample(
        (norm): LayerNorm2d((384,), eps=1e-06, elementwise_affine=True)
        (reduction): Sequential(
          (0): Conv2d(384, 768, kernel_size=(3, 3), stride=(2, 2), padding=(1, 1), bias=False)
        )
      )
      (global_tokenizer): TokenInitializer(
        (pos_embed): Conv2d(384, 384, kernel_size=(3, 3), stride=(1, 1), padding=(1, 1), groups=384)
        (to_global_feature): Sequential(
          (pos): Conv2d(384, 384, kernel_size=(3, 3), stride=(1, 1), padding=(1, 1), groups=384)
          (pool): AvgPool2d(kernel_size=5, stride=3, padding=0)
        )
      )
    )
    (3): FasterViTLayer(
      (blocks): ModuleList(
        (0): HAT(
          (pos_embed): PosEmbMLPSwinv1D(
            (cpb_mlp): Sequential(
              (0): Linear(in_features=2, out_features=512, bias=True)
              (1): ReLU()
              (2): Linear(in_features=512, out_features=768, bias=False)
            )
          )
          (norm1): LayerNorm((768,), eps=1e-05, elementwise_affine=True)
          (attn): WindowAttention(
            (qkv): Linear(in_features=768, out_features=2304, bias=True)
            (attn_drop): Dropout(p=0.0, inplace=False)
            (proj): Linear(in_features=768, out_features=768, bias=True)
            (proj_drop): Dropout(p=0.0, inplace=False)
            (pos_emb_funct): PosEmbMLPSwinv2D(
              (cpb_mlp): Sequential(
                (0): Linear(in_features=2, out_features=512, bias=True)
                (1): ReLU(inplace=True)
                (2): Linear(in_features=512, out_features=16, bias=False)
              )
            )
          )
          (drop_path): DropPath(drop_prob=0.156)
          (norm2): LayerNorm((768,), eps=1e-05, elementwise_affine=True)
          (mlp): Mlp(
            (fc1): Linear(in_features=768, out_features=3072, bias=True)
            (act): GELU(approximate='none')
            (fc2): Linear(in_features=3072, out_features=768, bias=True)
            (drop): Dropout(p=0.0, inplace=False)
          )
        )
        (1): HAT(
          (pos_embed): PosEmbMLPSwinv1D(
            (cpb_mlp): Sequential(
              (0): Linear(in_features=2, out_features=512, bias=True)
              (1): ReLU()
              (2): Linear(in_features=512, out_features=768, bias=False)
            )
          )
          (norm1): LayerNorm((768,), eps=1e-05, elementwise_affine=True)
          (attn): WindowAttention(
            (qkv): Linear(in_features=768, out_features=2304, bias=True)
            (attn_drop): Dropout(p=0.0, inplace=False)
            (proj): Linear(in_features=768, out_features=768, bias=True)
            (proj_drop): Dropout(p=0.0, inplace=False)
            (pos_emb_funct): PosEmbMLPSwinv2D(
              (cpb_mlp): Sequential(
                (0): Linear(in_features=2, out_features=512, bias=True)
                (1): ReLU(inplace=True)
                (2): Linear(in_features=512, out_features=16, bias=False)
              )
            )
          )
          (drop_path): DropPath(drop_prob=0.167)
          (norm2): LayerNorm((768,), eps=1e-05, elementwise_affine=True)
          (mlp): Mlp(
            (fc1): Linear(in_features=768, out_features=3072, bias=True)
            (act): GELU(approximate='none')
            (fc2): Linear(in_features=3072, out_features=768, bias=True)
            (drop): Dropout(p=0.0, inplace=False)
          )
        )
        (2): HAT(
          (pos_embed): PosEmbMLPSwinv1D(
            (cpb_mlp): Sequential(
              (0): Linear(in_features=2, out_features=512, bias=True)
              (1): ReLU()
              (2): Linear(in_features=512, out_features=768, bias=False)
            )
          )
          (norm1): LayerNorm((768,), eps=1e-05, elementwise_affine=True)
          (attn): WindowAttention(
            (qkv): Linear(in_features=768, out_features=2304, bias=True)
            (attn_drop): Dropout(p=0.0, inplace=False)
            (proj): Linear(in_features=768, out_features=768, bias=True)
            (proj_drop): Dropout(p=0.0, inplace=False)
            (pos_emb_funct): PosEmbMLPSwinv2D(
              (cpb_mlp): Sequential(
                (0): Linear(in_features=2, out_features=512, bias=True)
                (1): ReLU(inplace=True)
                (2): Linear(in_features=512, out_features=16, bias=False)
              )
            )
          )
          (drop_path): DropPath(drop_prob=0.178)
          (norm2): LayerNorm((768,), eps=1e-05, elementwise_affine=True)
          (mlp): Mlp(
            (fc1): Linear(in_features=768, out_features=3072, bias=True)
            (act): GELU(approximate='none')
            (fc2): Linear(in_features=3072, out_features=768, bias=True)
            (drop): Dropout(p=0.0, inplace=False)
          )
        )
        (3): HAT(
          (pos_embed): PosEmbMLPSwinv1D(
            (cpb_mlp): Sequential(
              (0): Linear(in_features=2, out_features=512, bias=True)
              (1): ReLU()
              (2): Linear(in_features=512, out_features=768, bias=False)
            )
          )
          (norm1): LayerNorm((768,), eps=1e-05, elementwise_affine=True)
          (attn): WindowAttention(
            (qkv): Linear(in_features=768, out_features=2304, bias=True)
            (attn_drop): Dropout(p=0.0, inplace=False)
            (proj): Linear(in_features=768, out_features=768, bias=True)
            (proj_drop): Dropout(p=0.0, inplace=False)
            (pos_emb_funct): PosEmbMLPSwinv2D(
              (cpb_mlp): Sequential(
                (0): Linear(in_features=2, out_features=512, bias=True)
                (1): ReLU(inplace=True)
                (2): Linear(in_features=512, out_features=16, bias=False)
              )
            )
          )
          (drop_path): DropPath(drop_prob=0.189)
          (norm2): LayerNorm((768,), eps=1e-05, elementwise_affine=True)
          (mlp): Mlp(
            (fc1): Linear(in_features=768, out_features=3072, bias=True)
            (act): GELU(approximate='none')
            (fc2): Linear(in_features=3072, out_features=768, bias=True)
            (drop): Dropout(p=0.0, inplace=False)
          )
        )
        (4): HAT(
          (pos_embed): PosEmbMLPSwinv1D(
            (cpb_mlp): Sequential(
              (0): Linear(in_features=2, out_features=512, bias=True)
              (1): ReLU()
              (2): Linear(in_features=512, out_features=768, bias=False)
            )
          )
          (norm1): LayerNorm((768,), eps=1e-05, elementwise_affine=True)
          (attn): WindowAttention(
            (qkv): Linear(in_features=768, out_features=2304, bias=True)
            (attn_drop): Dropout(p=0.0, inplace=False)
            (proj): Linear(in_features=768, out_features=768, bias=True)
            (proj_drop): Dropout(p=0.0, inplace=False)
            (pos_emb_funct): PosEmbMLPSwinv2D(
              (cpb_mlp): Sequential(
                (0): Linear(in_features=2, out_features=512, bias=True)
                (1): ReLU(inplace=True)
                (2): Linear(in_features=512, out_features=16, bias=False)
              )
            )
          )
          (drop_path): DropPath(drop_prob=0.200)
          (norm2): LayerNorm((768,), eps=1e-05, elementwise_affine=True)
          (mlp): Mlp(
            (fc1): Linear(in_features=768, out_features=3072, bias=True)
            (act): GELU(approximate='none')
            (fc2): Linear(in_features=3072, out_features=768, bias=True)
            (drop): Dropout(p=0.0, inplace=False)
          )
        )
      )
    )
  )
  (norm): BatchNorm2d(768, eps=1e-05, momentum=0.1, affine=True, track_running_stats=True)
  (avgpool): AdaptiveAvgPool2d(output_size=1)
  (head): Linear(in_features=768, out_features=2, bias=True)
)
FasterViT(
  (patch_embed): PatchEmbed(
    (proj): Identity()
    (conv_down): Sequential(
      (0): Conv2d(3, 64, kernel_size=(3, 3), stride=(2, 2), padding=(1, 1), bias=False)
      (1): BatchNorm2d(64, eps=0.0001, momentum=0.1, affine=True, track_running_stats=True)
      (2): ReLU()
      (3): Conv2d(64, 96, kernel_size=(3, 3), stride=(2, 2), padding=(1, 1), bias=False)
      (4): BatchNorm2d(96, eps=0.0001, momentum=0.1, affine=True, track_running_stats=True)
      (5): ReLU()
    )
  )
  (levels): ModuleList(
    (0): FasterViTLayer(
      (blocks): ModuleList(
        (0): ConvBlock(
          (conv1): Conv2d(96, 96, kernel_size=(3, 3), stride=(1, 1), padding=(1, 1))
          (norm1): BatchNorm2d(96, eps=1e-05, momentum=0.1, affine=True, track_running_stats=True)
          (act1): GELU(approximate='none')
          (conv2): Conv2d(96, 96, kernel_size=(3, 3), stride=(1, 1), padding=(1, 1))
          (norm2): BatchNorm2d(96, eps=1e-05, momentum=0.1, affine=True, track_running_stats=True)
          (drop_path): Identity()
        )
        (1): ConvBlock(
          (conv1): Conv2d(96, 96, kernel_size=(3, 3), stride=(1, 1), padding=(1, 1))
          (norm1): BatchNorm2d(96, eps=1e-05, momentum=0.1, affine=True, track_running_stats=True)
          (act1): GELU(approximate='none')
          (conv2): Conv2d(96, 96, kernel_size=(3, 3), stride=(1, 1), padding=(1, 1))
          (norm2): BatchNorm2d(96, eps=1e-05, momentum=0.1, affine=True, track_running_stats=True)
          (drop_path): DropPath(drop_prob=0.011)
        )
        (2): ConvBlock(
          (conv1): Conv2d(96, 96, kernel_size=(3, 3), stride=(1, 1), padding=(1, 1))
          (norm1): BatchNorm2d(96, eps=1e-05, momentum=0.1, affine=True, track_running_stats=True)
          (act1): GELU(approximate='none')
          (conv2): Conv2d(96, 96, kernel_size=(3, 3), stride=(1, 1), padding=(1, 1))
          (norm2): BatchNorm2d(96, eps=1e-05, momentum=0.1, affine=True, track_running_stats=True)
          (drop_path): DropPath(drop_prob=0.022)
        )
      )
      (downsample): Downsample(
        (norm): LayerNorm2d((96,), eps=1e-06, elementwise_affine=True)
        (reduction): Sequential(
          (0): Conv2d(96, 192, kernel_size=(3, 3), stride=(2, 2), padding=(1, 1), bias=False)
        )
      )
    )
    (1): FasterViTLayer(
      (blocks): ModuleList(
        (0): ConvBlock(
          (conv1): Conv2d(192, 192, kernel_size=(3, 3), stride=(1, 1), padding=(1, 1))
          (norm1): BatchNorm2d(192, eps=1e-05, momentum=0.1, affine=True, track_running_stats=True)
          (act1): GELU(approximate='none')
          (conv2): Conv2d(192, 192, kernel_size=(3, 3), stride=(1, 1), padding=(1, 1))
          (norm2): BatchNorm2d(192, eps=1e-05, momentum=0.1, affine=True, track_running_stats=True)
          (drop_path): DropPath(drop_prob=0.033)
        )
        (1): ConvBlock(
          (conv1): Conv2d(192, 192, kernel_size=(3, 3), stride=(1, 1), padding=(1, 1))
          (norm1): BatchNorm2d(192, eps=1e-05, momentum=0.1, affine=True, track_running_stats=True)
          (act1): GELU(approximate='none')
          (conv2): Conv2d(192, 192, kernel_size=(3, 3), stride=(1, 1), padding=(1, 1))
          (norm2): BatchNorm2d(192, eps=1e-05, momentum=0.1, affine=True, track_running_stats=True)
          (drop_path): DropPath(drop_prob=0.044)
        )
        (2): ConvBlock(
          (conv1): Conv2d(192, 192, kernel_size=(3, 3), stride=(1, 1), padding=(1, 1))
          (norm1): BatchNorm2d(192, eps=1e-05, momentum=0.1, affine=True, track_running_stats=True)
          (act1): GELU(approximate='none')
          (conv2): Conv2d(192, 192, kernel_size=(3, 3), stride=(1, 1), padding=(1, 1))
          (norm2): BatchNorm2d(192, eps=1e-05, momentum=0.1, affine=True, track_running_stats=True)
          (drop_path): DropPath(drop_prob=0.056)
        )
      )
      (downsample): Downsample(
        (norm): LayerNorm2d((192,), eps=1e-06, elementwise_affine=True)
        (reduction): Sequential(
          (0): Conv2d(192, 384, kernel_size=(3, 3), stride=(2, 2), padding=(1, 1), bias=False)
        )
      )
    )
    (2): FasterViTLayer(
      (blocks): ModuleList(
        (0): HAT(
          (pos_embed): PosEmbMLPSwinv1D(
            (cpb_mlp): Sequential(
              (0): Linear(in_features=2, out_features=512, bias=True)
              (1): ReLU()
              (2): Linear(in_features=512, out_features=384, bias=False)
            )
          )
          (norm1): LayerNorm((384,), eps=1e-05, elementwise_affine=True)
          (attn): WindowAttention(
            (qkv): Linear(in_features=384, out_features=1152, bias=True)
            (attn_drop): Dropout(p=0.0, inplace=False)
            (proj): Linear(in_features=384, out_features=384, bias=True)
            (proj_drop): Dropout(p=0.0, inplace=False)
            (pos_emb_funct): PosEmbMLPSwinv2D(
              (cpb_mlp): Sequential(
                (0): Linear(in_features=2, out_features=512, bias=True)
                (1): ReLU(inplace=True)
                (2): Linear(in_features=512, out_features=8, bias=False)
              )
            )
          )
          (drop_path): DropPath(drop_prob=0.067)
          (norm2): LayerNorm((384,), eps=1e-05, elementwise_affine=True)
          (mlp): Mlp(
            (fc1): Linear(in_features=384, out_features=1536, bias=True)
            (act): GELU(approximate='none')
            (fc2): Linear(in_features=1536, out_features=384, bias=True)
            (drop): Dropout(p=0.0, inplace=False)
          )
          (hat_norm1): LayerNorm((384,), eps=1e-05, elementwise_affine=True)
          (hat_norm2): LayerNorm((384,), eps=1e-05, elementwise_affine=True)
          (hat_attn): WindowAttention(
            (qkv): Linear(in_features=384, out_features=1152, bias=True)
            (attn_drop): Dropout(p=0.0, inplace=False)
            (proj): Linear(in_features=384, out_features=384, bias=True)
            (proj_drop): Dropout(p=0.0, inplace=False)
            (pos_emb_funct): PosEmbMLPSwinv2D(
              (cpb_mlp): Sequential(
                (0): Linear(in_features=2, out_features=512, bias=True)
                (1): ReLU(inplace=True)
                (2): Linear(in_features=512, out_features=8, bias=False)
              )
            )
          )
          (hat_mlp): Mlp(
            (fc1): Linear(in_features=384, out_features=1536, bias=True)
            (act): GELU(approximate='none')
            (fc2): Linear(in_features=1536, out_features=384, bias=True)
            (drop): Dropout(p=0.0, inplace=False)
          )
          (hat_drop_path): DropPath(drop_prob=0.067)
          (hat_pos_embed): PosEmbMLPSwinv1D(
            (cpb_mlp): Sequential(
              (0): Linear(in_features=2, out_features=512, bias=True)
              (1): ReLU()
              (2): Linear(in_features=512, out_features=384, bias=False)
            )
          )
          (upsampler): Upsample(size=7, mode='nearest')
        )
        (1): HAT(
          (pos_embed): PosEmbMLPSwinv1D(
            (cpb_mlp): Sequential(
              (0): Linear(in_features=2, out_features=512, bias=True)
              (1): ReLU()
              (2): Linear(in_features=512, out_features=384, bias=False)
            )
          )
          (norm1): LayerNorm((384,), eps=1e-05, elementwise_affine=True)
          (attn): WindowAttention(
            (qkv): Linear(in_features=384, out_features=1152, bias=True)
            (attn_drop): Dropout(p=0.0, inplace=False)
            (proj): Linear(in_features=384, out_features=384, bias=True)
            (proj_drop): Dropout(p=0.0, inplace=False)
            (pos_emb_funct): PosEmbMLPSwinv2D(
              (cpb_mlp): Sequential(
                (0): Linear(in_features=2, out_features=512, bias=True)
                (1): ReLU(inplace=True)
                (2): Linear(in_features=512, out_features=8, bias=False)
              )
            )
          )
          (drop_path): DropPath(drop_prob=0.078)
          (norm2): LayerNorm((384,), eps=1e-05, elementwise_affine=True)
          (mlp): Mlp(
            (fc1): Linear(in_features=384, out_features=1536, bias=True)
            (act): GELU(approximate='none')
            (fc2): Linear(in_features=1536, out_features=384, bias=True)
            (drop): Dropout(p=0.0, inplace=False)
          )
          (hat_norm1): LayerNorm((384,), eps=1e-05, elementwise_affine=True)
          (hat_norm2): LayerNorm((384,), eps=1e-05, elementwise_affine=True)
          (hat_attn): WindowAttention(
            (qkv): Linear(in_features=384, out_features=1152, bias=True)
            (attn_drop): Dropout(p=0.0, inplace=False)
            (proj): Linear(in_features=384, out_features=384, bias=True)
            (proj_drop): Dropout(p=0.0, inplace=False)
            (pos_emb_funct): PosEmbMLPSwinv2D(
              (cpb_mlp): Sequential(
                (0): Linear(in_features=2, out_features=512, bias=True)
                (1): ReLU(inplace=True)
                (2): Linear(in_features=512, out_features=8, bias=False)
              )
            )
          )
          (hat_mlp): Mlp(
            (fc1): Linear(in_features=384, out_features=1536, bias=True)
            (act): GELU(approximate='none')
            (fc2): Linear(in_features=1536, out_features=384, bias=True)
            (drop): Dropout(p=0.0, inplace=False)
          )
          (hat_drop_path): DropPath(drop_prob=0.078)
          (hat_pos_embed): PosEmbMLPSwinv1D(
            (cpb_mlp): Sequential(
              (0): Linear(in_features=2, out_features=512, bias=True)
              (1): ReLU()
              (2): Linear(in_features=512, out_features=384, bias=False)
            )
          )
          (upsampler): Upsample(size=7, mode='nearest')
        )
        (2): HAT(
          (pos_embed): PosEmbMLPSwinv1D(
            (cpb_mlp): Sequential(
              (0): Linear(in_features=2, out_features=512, bias=True)
              (1): ReLU()
              (2): Linear(in_features=512, out_features=384, bias=False)
            )
          )
          (norm1): LayerNorm((384,), eps=1e-05, elementwise_affine=True)
          (attn): WindowAttention(
            (qkv): Linear(in_features=384, out_features=1152, bias=True)
            (attn_drop): Dropout(p=0.0, inplace=False)
            (proj): Linear(in_features=384, out_features=384, bias=True)
            (proj_drop): Dropout(p=0.0, inplace=False)
            (pos_emb_funct): PosEmbMLPSwinv2D(
              (cpb_mlp): Sequential(
                (0): Linear(in_features=2, out_features=512, bias=True)
                (1): ReLU(inplace=True)
                (2): Linear(in_features=512, out_features=8, bias=False)
              )
            )
          )
          (drop_path): DropPath(drop_prob=0.089)
          (norm2): LayerNorm((384,), eps=1e-05, elementwise_affine=True)
          (mlp): Mlp(
            (fc1): Linear(in_features=384, out_features=1536, bias=True)
            (act): GELU(approximate='none')
            (fc2): Linear(in_features=1536, out_features=384, bias=True)
            (drop): Dropout(p=0.0, inplace=False)
          )
          (hat_norm1): LayerNorm((384,), eps=1e-05, elementwise_affine=True)
          (hat_norm2): LayerNorm((384,), eps=1e-05, elementwise_affine=True)
          (hat_attn): WindowAttention(
            (qkv): Linear(in_features=384, out_features=1152, bias=True)
            (attn_drop): Dropout(p=0.0, inplace=False)
            (proj): Linear(in_features=384, out_features=384, bias=True)
            (proj_drop): Dropout(p=0.0, inplace=False)
            (pos_emb_funct): PosEmbMLPSwinv2D(
              (cpb_mlp): Sequential(
                (0): Linear(in_features=2, out_features=512, bias=True)
                (1): ReLU(inplace=True)
                (2): Linear(in_features=512, out_features=8, bias=False)
              )
            )
          )
          (hat_mlp): Mlp(
            (fc1): Linear(in_features=384, out_features=1536, bias=True)
            (act): GELU(approximate='none')
            (fc2): Linear(in_features=1536, out_features=384, bias=True)
            (drop): Dropout(p=0.0, inplace=False)
          )
          (hat_drop_path): DropPath(drop_prob=0.089)
          (hat_pos_embed): PosEmbMLPSwinv1D(
            (cpb_mlp): Sequential(
              (0): Linear(in_features=2, out_features=512, bias=True)
              (1): ReLU()
              (2): Linear(in_features=512, out_features=384, bias=False)
            )
          )
          (upsampler): Upsample(size=7, mode='nearest')
        )
        (3): HAT(
          (pos_embed): PosEmbMLPSwinv1D(
            (cpb_mlp): Sequential(
              (0): Linear(in_features=2, out_features=512, bias=True)
              (1): ReLU()
              (2): Linear(in_features=512, out_features=384, bias=False)
            )
          )
          (norm1): LayerNorm((384,), eps=1e-05, elementwise_affine=True)
          (attn): WindowAttention(
            (qkv): Linear(in_features=384, out_features=1152, bias=True)
            (attn_drop): Dropout(p=0.0, inplace=False)
            (proj): Linear(in_features=384, out_features=384, bias=True)
            (proj_drop): Dropout(p=0.0, inplace=False)
            (pos_emb_funct): PosEmbMLPSwinv2D(
              (cpb_mlp): Sequential(
                (0): Linear(in_features=2, out_features=512, bias=True)
                (1): ReLU(inplace=True)
                (2): Linear(in_features=512, out_features=8, bias=False)
              )
            )
          )
          (drop_path): DropPath(drop_prob=0.100)
          (norm2): LayerNorm((384,), eps=1e-05, elementwise_affine=True)
          (mlp): Mlp(
            (fc1): Linear(in_features=384, out_features=1536, bias=True)
            (act): GELU(approximate='none')
            (fc2): Linear(in_features=1536, out_features=384, bias=True)
            (drop): Dropout(p=0.0, inplace=False)
          )
          (hat_norm1): LayerNorm((384,), eps=1e-05, elementwise_affine=True)
          (hat_norm2): LayerNorm((384,), eps=1e-05, elementwise_affine=True)
          (hat_attn): WindowAttention(
            (qkv): Linear(in_features=384, out_features=1152, bias=True)
            (attn_drop): Dropout(p=0.0, inplace=False)
            (proj): Linear(in_features=384, out_features=384, bias=True)
            (proj_drop): Dropout(p=0.0, inplace=False)
            (pos_emb_funct): PosEmbMLPSwinv2D(
              (cpb_mlp): Sequential(
                (0): Linear(in_features=2, out_features=512, bias=True)
                (1): ReLU(inplace=True)
                (2): Linear(in_features=512, out_features=8, bias=False)
              )
            )
          )
          (hat_mlp): Mlp(
            (fc1): Linear(in_features=384, out_features=1536, bias=True)
            (act): GELU(approximate='none')
            (fc2): Linear(in_features=1536, out_features=384, bias=True)
            (drop): Dropout(p=0.0, inplace=False)
          )
          (hat_drop_path): DropPath(drop_prob=0.100)
          (hat_pos_embed): PosEmbMLPSwinv1D(
            (cpb_mlp): Sequential(
              (0): Linear(in_features=2, out_features=512, bias=True)
              (1): ReLU()
              (2): Linear(in_features=512, out_features=384, bias=False)
            )
          )
          (upsampler): Upsample(size=7, mode='nearest')
        )
        (4): HAT(
          (pos_embed): PosEmbMLPSwinv1D(
            (cpb_mlp): Sequential(
              (0): Linear(in_features=2, out_features=512, bias=True)
              (1): ReLU()
              (2): Linear(in_features=512, out_features=384, bias=False)
            )
          )
          (norm1): LayerNorm((384,), eps=1e-05, elementwise_affine=True)
          (attn): WindowAttention(
            (qkv): Linear(in_features=384, out_features=1152, bias=True)
            (attn_drop): Dropout(p=0.0, inplace=False)
            (proj): Linear(in_features=384, out_features=384, bias=True)
            (proj_drop): Dropout(p=0.0, inplace=False)
            (pos_emb_funct): PosEmbMLPSwinv2D(
              (cpb_mlp): Sequential(
                (0): Linear(in_features=2, out_features=512, bias=True)
                (1): ReLU(inplace=True)
                (2): Linear(in_features=512, out_features=8, bias=False)
              )
            )
          )
          (drop_path): DropPath(drop_prob=0.111)
          (norm2): LayerNorm((384,), eps=1e-05, elementwise_affine=True)
          (mlp): Mlp(
            (fc1): Linear(in_features=384, out_features=1536, bias=True)
            (act): GELU(approximate='none')
            (fc2): Linear(in_features=1536, out_features=384, bias=True)
            (drop): Dropout(p=0.0, inplace=False)
          )
          (hat_norm1): LayerNorm((384,), eps=1e-05, elementwise_affine=True)
          (hat_norm2): LayerNorm((384,), eps=1e-05, elementwise_affine=True)
          (hat_attn): WindowAttention(
            (qkv): Linear(in_features=384, out_features=1152, bias=True)
            (attn_drop): Dropout(p=0.0, inplace=False)
            (proj): Linear(in_features=384, out_features=384, bias=True)
            (proj_drop): Dropout(p=0.0, inplace=False)
            (pos_emb_funct): PosEmbMLPSwinv2D(
              (cpb_mlp): Sequential(
                (0): Linear(in_features=2, out_features=512, bias=True)
                (1): ReLU(inplace=True)
                (2): Linear(in_features=512, out_features=8, bias=False)
              )
            )
          )
          (hat_mlp): Mlp(
            (fc1): Linear(in_features=384, out_features=1536, bias=True)
            (act): GELU(approximate='none')
            (fc2): Linear(in_features=1536, out_features=384, bias=True)
            (drop): Dropout(p=0.0, inplace=False)
          )
          (hat_drop_path): DropPath(drop_prob=0.111)
          (hat_pos_embed): PosEmbMLPSwinv1D(
            (cpb_mlp): Sequential(
              (0): Linear(in_features=2, out_features=512, bias=True)
              (1): ReLU()
              (2): Linear(in_features=512, out_features=384, bias=False)
            )
          )
          (upsampler): Upsample(size=7, mode='nearest')
        )
        (5): HAT(
          (pos_embed): PosEmbMLPSwinv1D(
            (cpb_mlp): Sequential(
              (0): Linear(in_features=2, out_features=512, bias=True)
              (1): ReLU()
              (2): Linear(in_features=512, out_features=384, bias=False)
            )
          )
          (norm1): LayerNorm((384,), eps=1e-05, elementwise_affine=True)
          (attn): WindowAttention(
            (qkv): Linear(in_features=384, out_features=1152, bias=True)
            (attn_drop): Dropout(p=0.0, inplace=False)
            (proj): Linear(in_features=384, out_features=384, bias=True)
            (proj_drop): Dropout(p=0.0, inplace=False)
            (pos_emb_funct): PosEmbMLPSwinv2D(
              (cpb_mlp): Sequential(
                (0): Linear(in_features=2, out_features=512, bias=True)
                (1): ReLU(inplace=True)
                (2): Linear(in_features=512, out_features=8, bias=False)
              )
            )
          )
          (drop_path): DropPath(drop_prob=0.122)
          (norm2): LayerNorm((384,), eps=1e-05, elementwise_affine=True)
          (mlp): Mlp(
            (fc1): Linear(in_features=384, out_features=1536, bias=True)
            (act): GELU(approximate='none')
            (fc2): Linear(in_features=1536, out_features=384, bias=True)
            (drop): Dropout(p=0.0, inplace=False)
          )
          (hat_norm1): LayerNorm((384,), eps=1e-05, elementwise_affine=True)
          (hat_norm2): LayerNorm((384,), eps=1e-05, elementwise_affine=True)
          (hat_attn): WindowAttention(
            (qkv): Linear(in_features=384, out_features=1152, bias=True)
            (attn_drop): Dropout(p=0.0, inplace=False)
            (proj): Linear(in_features=384, out_features=384, bias=True)
            (proj_drop): Dropout(p=0.0, inplace=False)
            (pos_emb_funct): PosEmbMLPSwinv2D(
              (cpb_mlp): Sequential(
                (0): Linear(in_features=2, out_features=512, bias=True)
                (1): ReLU(inplace=True)
                (2): Linear(in_features=512, out_features=8, bias=False)
              )
            )
          )
          (hat_mlp): Mlp(
            (fc1): Linear(in_features=384, out_features=1536, bias=True)
            (act): GELU(approximate='none')
            (fc2): Linear(in_features=1536, out_features=384, bias=True)
            (drop): Dropout(p=0.0, inplace=False)
          )
          (hat_drop_path): DropPath(drop_prob=0.122)
          (hat_pos_embed): PosEmbMLPSwinv1D(
            (cpb_mlp): Sequential(
              (0): Linear(in_features=2, out_features=512, bias=True)
              (1): ReLU()
              (2): Linear(in_features=512, out_features=384, bias=False)
            )
          )
          (upsampler): Upsample(size=7, mode='nearest')
        )
        (6): HAT(
          (pos_embed): PosEmbMLPSwinv1D(
            (cpb_mlp): Sequential(
              (0): Linear(in_features=2, out_features=512, bias=True)
              (1): ReLU()
              (2): Linear(in_features=512, out_features=384, bias=False)
            )
          )
          (norm1): LayerNorm((384,), eps=1e-05, elementwise_affine=True)
          (attn): WindowAttention(
            (qkv): Linear(in_features=384, out_features=1152, bias=True)
            (attn_drop): Dropout(p=0.0, inplace=False)
            (proj): Linear(in_features=384, out_features=384, bias=True)
            (proj_drop): Dropout(p=0.0, inplace=False)
            (pos_emb_funct): PosEmbMLPSwinv2D(
              (cpb_mlp): Sequential(
                (0): Linear(in_features=2, out_features=512, bias=True)
                (1): ReLU(inplace=True)
                (2): Linear(in_features=512, out_features=8, bias=False)
              )
            )
          )
          (drop_path): DropPath(drop_prob=0.133)
          (norm2): LayerNorm((384,), eps=1e-05, elementwise_affine=True)
          (mlp): Mlp(
            (fc1): Linear(in_features=384, out_features=1536, bias=True)
            (act): GELU(approximate='none')
            (fc2): Linear(in_features=1536, out_features=384, bias=True)
            (drop): Dropout(p=0.0, inplace=False)
          )
          (hat_norm1): LayerNorm((384,), eps=1e-05, elementwise_affine=True)
          (hat_norm2): LayerNorm((384,), eps=1e-05, elementwise_affine=True)
          (hat_attn): WindowAttention(
            (qkv): Linear(in_features=384, out_features=1152, bias=True)
            (attn_drop): Dropout(p=0.0, inplace=False)
            (proj): Linear(in_features=384, out_features=384, bias=True)
            (proj_drop): Dropout(p=0.0, inplace=False)
            (pos_emb_funct): PosEmbMLPSwinv2D(
              (cpb_mlp): Sequential(
                (0): Linear(in_features=2, out_features=512, bias=True)
                (1): ReLU(inplace=True)
                (2): Linear(in_features=512, out_features=8, bias=False)
              )
            )
          )
          (hat_mlp): Mlp(
            (fc1): Linear(in_features=384, out_features=1536, bias=True)
            (act): GELU(approximate='none')
            (fc2): Linear(in_features=1536, out_features=384, bias=True)
            (drop): Dropout(p=0.0, inplace=False)
          )
          (hat_drop_path): DropPath(drop_prob=0.133)
          (hat_pos_embed): PosEmbMLPSwinv1D(
            (cpb_mlp): Sequential(
              (0): Linear(in_features=2, out_features=512, bias=True)
              (1): ReLU()
              (2): Linear(in_features=512, out_features=384, bias=False)
            )
          )
          (upsampler): Upsample(size=7, mode='nearest')
        )
        (7): HAT(
          (pos_embed): PosEmbMLPSwinv1D(
            (cpb_mlp): Sequential(
              (0): Linear(in_features=2, out_features=512, bias=True)
              (1): ReLU()
              (2): Linear(in_features=512, out_features=384, bias=False)
            )
          )
          (norm1): LayerNorm((384,), eps=1e-05, elementwise_affine=True)
          (attn): WindowAttention(
            (qkv): Linear(in_features=384, out_features=1152, bias=True)
            (attn_drop): Dropout(p=0.0, inplace=False)
            (proj): Linear(in_features=384, out_features=384, bias=True)
            (proj_drop): Dropout(p=0.0, inplace=False)
            (pos_emb_funct): PosEmbMLPSwinv2D(
              (cpb_mlp): Sequential(
                (0): Linear(in_features=2, out_features=512, bias=True)
                (1): ReLU(inplace=True)
                (2): Linear(in_features=512, out_features=8, bias=False)
              )
            )
          )
          (drop_path): DropPath(drop_prob=0.144)
          (norm2): LayerNorm((384,), eps=1e-05, elementwise_affine=True)
          (mlp): Mlp(
            (fc1): Linear(in_features=384, out_features=1536, bias=True)
            (act): GELU(approximate='none')
            (fc2): Linear(in_features=1536, out_features=384, bias=True)
            (drop): Dropout(p=0.0, inplace=False)
          )
          (hat_norm1): LayerNorm((384,), eps=1e-05, elementwise_affine=True)
          (hat_norm2): LayerNorm((384,), eps=1e-05, elementwise_affine=True)
          (hat_attn): WindowAttention(
            (qkv): Linear(in_features=384, out_features=1152, bias=True)
            (attn_drop): Dropout(p=0.0, inplace=False)
            (proj): Linear(in_features=384, out_features=384, bias=True)
            (proj_drop): Dropout(p=0.0, inplace=False)
            (pos_emb_funct): PosEmbMLPSwinv2D(
              (cpb_mlp): Sequential(
                (0): Linear(in_features=2, out_features=512, bias=True)
                (1): ReLU(inplace=True)
                (2): Linear(in_features=512, out_features=8, bias=False)
              )
            )
          )
          (hat_mlp): Mlp(
            (fc1): Linear(in_features=384, out_features=1536, bias=True)
            (act): GELU(approximate='none')
            (fc2): Linear(in_features=1536, out_features=384, bias=True)
            (drop): Dropout(p=0.0, inplace=False)
          )
          (hat_drop_path): DropPath(drop_prob=0.144)
          (hat_pos_embed): PosEmbMLPSwinv1D(
            (cpb_mlp): Sequential(
              (0): Linear(in_features=2, out_features=512, bias=True)
              (1): ReLU()
              (2): Linear(in_features=512, out_features=384, bias=False)
            )
          )
          (upsampler): Upsample(size=7, mode='nearest')
        )
      )
      (downsample): Downsample(
        (norm): LayerNorm2d((384,), eps=1e-06, elementwise_affine=True)
        (reduction): Sequential(
          (0): Conv2d(384, 768, kernel_size=(3, 3), stride=(2, 2), padding=(1, 1), bias=False)
        )
      )
      (global_tokenizer): TokenInitializer(
        (pos_embed): Conv2d(384, 384, kernel_size=(3, 3), stride=(1, 1), padding=(1, 1), groups=384)
        (to_global_feature): Sequential(
          (pos): Conv2d(384, 384, kernel_size=(3, 3), stride=(1, 1), padding=(1, 1), groups=384)
          (pool): AvgPool2d(kernel_size=5, stride=3, padding=0)
        )
      )
    )
    (3): FasterViTLayer(
      (blocks): ModuleList(
        (0): HAT(
          (pos_embed): PosEmbMLPSwinv1D(
            (cpb_mlp): Sequential(
              (0): Linear(in_features=2, out_features=512, bias=True)
              (1): ReLU()
              (2): Linear(in_features=512, out_features=768, bias=False)
            )
          )
          (norm1): LayerNorm((768,), eps=1e-05, elementwise_affine=True)
          (attn): WindowAttention(
            (qkv): Linear(in_features=768, out_features=2304, bias=True)
            (attn_drop): Dropout(p=0.0, inplace=False)
            (proj): Linear(in_features=768, out_features=768, bias=True)
            (proj_drop): Dropout(p=0.0, inplace=False)
            (pos_emb_funct): PosEmbMLPSwinv2D(
              (cpb_mlp): Sequential(
                (0): Linear(in_features=2, out_features=512, bias=True)
                (1): ReLU(inplace=True)
                (2): Linear(in_features=512, out_features=16, bias=False)
              )
            )
          )
          (drop_path): DropPath(drop_prob=0.156)
          (norm2): LayerNorm((768,), eps=1e-05, elementwise_affine=True)
          (mlp): Mlp(
            (fc1): Linear(in_features=768, out_features=3072, bias=True)
            (act): GELU(approximate='none')
            (fc2): Linear(in_features=3072, out_features=768, bias=True)
            (drop): Dropout(p=0.0, inplace=False)
          )
        )
        (1): HAT(
          (pos_embed): PosEmbMLPSwinv1D(
            (cpb_mlp): Sequential(
              (0): Linear(in_features=2, out_features=512, bias=True)
              (1): ReLU()
              (2): Linear(in_features=512, out_features=768, bias=False)
            )
          )
          (norm1): LayerNorm((768,), eps=1e-05, elementwise_affine=True)
          (attn): WindowAttention(
            (qkv): Linear(in_features=768, out_features=2304, bias=True)
            (attn_drop): Dropout(p=0.0, inplace=False)
            (proj): Linear(in_features=768, out_features=768, bias=True)
            (proj_drop): Dropout(p=0.0, inplace=False)
            (pos_emb_funct): PosEmbMLPSwinv2D(
              (cpb_mlp): Sequential(
                (0): Linear(in_features=2, out_features=512, bias=True)
                (1): ReLU(inplace=True)
                (2): Linear(in_features=512, out_features=16, bias=False)
              )
            )
          )
          (drop_path): DropPath(drop_prob=0.167)
          (norm2): LayerNorm((768,), eps=1e-05, elementwise_affine=True)
          (mlp): Mlp(
            (fc1): Linear(in_features=768, out_features=3072, bias=True)
            (act): GELU(approximate='none')
            (fc2): Linear(in_features=3072, out_features=768, bias=True)
            (drop): Dropout(p=0.0, inplace=False)
          )
        )
        (2): HAT(
          (pos_embed): PosEmbMLPSwinv1D(
            (cpb_mlp): Sequential(
              (0): Linear(in_features=2, out_features=512, bias=True)
              (1): ReLU()
              (2): Linear(in_features=512, out_features=768, bias=False)
            )
          )
          (norm1): LayerNorm((768,), eps=1e-05, elementwise_affine=True)
          (attn): WindowAttention(
            (qkv): Linear(in_features=768, out_features=2304, bias=True)
            (attn_drop): Dropout(p=0.0, inplace=False)
            (proj): Linear(in_features=768, out_features=768, bias=True)
            (proj_drop): Dropout(p=0.0, inplace=False)
            (pos_emb_funct): PosEmbMLPSwinv2D(
              (cpb_mlp): Sequential(
                (0): Linear(in_features=2, out_features=512, bias=True)
                (1): ReLU(inplace=True)
                (2): Linear(in_features=512, out_features=16, bias=False)
              )
            )
          )
          (drop_path): DropPath(drop_prob=0.178)
          (norm2): LayerNorm((768,), eps=1e-05, elementwise_affine=True)
          (mlp): Mlp(
            (fc1): Linear(in_features=768, out_features=3072, bias=True)
            (act): GELU(approximate='none')
            (fc2): Linear(in_features=3072, out_features=768, bias=True)
            (drop): Dropout(p=0.0, inplace=False)
          )
        )
        (3): HAT(
          (pos_embed): PosEmbMLPSwinv1D(
            (cpb_mlp): Sequential(
              (0): Linear(in_features=2, out_features=512, bias=True)
              (1): ReLU()
              (2): Linear(in_features=512, out_features=768, bias=False)
            )
          )
          (norm1): LayerNorm((768,), eps=1e-05, elementwise_affine=True)
          (attn): WindowAttention(
            (qkv): Linear(in_features=768, out_features=2304, bias=True)
            (attn_drop): Dropout(p=0.0, inplace=False)
            (proj): Linear(in_features=768, out_features=768, bias=True)
            (proj_drop): Dropout(p=0.0, inplace=False)
            (pos_emb_funct): PosEmbMLPSwinv2D(
              (cpb_mlp): Sequential(
                (0): Linear(in_features=2, out_features=512, bias=True)
                (1): ReLU(inplace=True)
                (2): Linear(in_features=512, out_features=16, bias=False)
              )
            )
          )
          (drop_path): DropPath(drop_prob=0.189)
          (norm2): LayerNorm((768,), eps=1e-05, elementwise_affine=True)
          (mlp): Mlp(
            (fc1): Linear(in_features=768, out_features=3072, bias=True)
            (act): GELU(approximate='none')
            (fc2): Linear(in_features=3072, out_features=768, bias=True)
            (drop): Dropout(p=0.0, inplace=False)
          )
        )
        (4): HAT(
          (pos_embed): PosEmbMLPSwinv1D(
            (cpb_mlp): Sequential(
              (0): Linear(in_features=2, out_features=512, bias=True)
              (1): ReLU()
              (2): Linear(in_features=512, out_features=768, bias=False)
            )
          )
          (norm1): LayerNorm((768,), eps=1e-05, elementwise_affine=True)
          (attn): WindowAttention(
            (qkv): Linear(in_features=768, out_features=2304, bias=True)
            (attn_drop): Dropout(p=0.0, inplace=False)
            (proj): Linear(in_features=768, out_features=768, bias=True)
            (proj_drop): Dropout(p=0.0, inplace=False)
            (pos_emb_funct): PosEmbMLPSwinv2D(
              (cpb_mlp): Sequential(
                (0): Linear(in_features=2, out_features=512, bias=True)
                (1): ReLU(inplace=True)
                (2): Linear(in_features=512, out_features=16, bias=False)
              )
            )
          )
          (drop_path): DropPath(drop_prob=0.200)
          (norm2): LayerNorm((768,), eps=1e-05, elementwise_affine=True)
          (mlp): Mlp(
            (fc1): Linear(in_features=768, out_features=3072, bias=True)
            (act): GELU(approximate='none')
            (fc2): Linear(in_features=3072, out_features=768, bias=True)
            (drop): Dropout(p=0.0, inplace=False)
          )
        )
      )
    )
  )
  (norm): BatchNorm2d(768, eps=1e-05, momentum=0.1, affine=True, track_running_stats=True)
  (avgpool): AdaptiveAvgPool2d(output_size=1)
  (head): Linear(in_features=768, out_features=2, bias=True)
)
FasterViT(
  (patch_embed): PatchEmbed(
    (proj): Identity()
    (conv_down): Sequential(
      (0): Conv2d(3, 64, kernel_size=(3, 3), stride=(2, 2), padding=(1, 1), bias=False)
      (1): BatchNorm2d(64, eps=0.0001, momentum=0.1, affine=True, track_running_stats=True)
      (2): ReLU()
      (3): Conv2d(64, 96, kernel_size=(3, 3), stride=(2, 2), padding=(1, 1), bias=False)
      (4): BatchNorm2d(96, eps=0.0001, momentum=0.1, affine=True, track_running_stats=True)
      (5): ReLU()
    )
  )
  (levels): ModuleList(
    (0): FasterViTLayer(
      (blocks): ModuleList(
        (0): ConvBlock(
          (conv1): Conv2d(96, 96, kernel_size=(3, 3), stride=(1, 1), padding=(1, 1))
          (norm1): BatchNorm2d(96, eps=1e-05, momentum=0.1, affine=True, track_running_stats=True)
          (act1): GELU(approximate='none')
          (conv2): Conv2d(96, 96, kernel_size=(3, 3), stride=(1, 1), padding=(1, 1))
          (norm2): BatchNorm2d(96, eps=1e-05, momentum=0.1, affine=True, track_running_stats=True)
          (drop_path): Identity()
        )
        (1): ConvBlock(
          (conv1): Conv2d(96, 96, kernel_size=(3, 3), stride=(1, 1), padding=(1, 1))
          (norm1): BatchNorm2d(96, eps=1e-05, momentum=0.1, affine=True, track_running_stats=True)
          (act1): GELU(approximate='none')
          (conv2): Conv2d(96, 96, kernel_size=(3, 3), stride=(1, 1), padding=(1, 1))
          (norm2): BatchNorm2d(96, eps=1e-05, momentum=0.1, affine=True, track_running_stats=True)
          (drop_path): DropPath(drop_prob=0.011)
        )
        (2): ConvBlock(
          (conv1): Conv2d(96, 96, kernel_size=(3, 3), stride=(1, 1), padding=(1, 1))
          (norm1): BatchNorm2d(96, eps=1e-05, momentum=0.1, affine=True, track_running_stats=True)
          (act1): GELU(approximate='none')
          (conv2): Conv2d(96, 96, kernel_size=(3, 3), stride=(1, 1), padding=(1, 1))
          (norm2): BatchNorm2d(96, eps=1e-05, momentum=0.1, affine=True, track_running_stats=True)
          (drop_path): DropPath(drop_prob=0.022)
        )
      )
      (downsample): Downsample(
        (norm): LayerNorm2d((96,), eps=1e-06, elementwise_affine=True)
        (reduction): Sequential(
          (0): Conv2d(96, 192, kernel_size=(3, 3), stride=(2, 2), padding=(1, 1), bias=False)
        )
      )
    )
    (1): FasterViTLayer(
      (blocks): ModuleList(
        (0): ConvBlock(
          (conv1): Conv2d(192, 192, kernel_size=(3, 3), stride=(1, 1), padding=(1, 1))
          (norm1): BatchNorm2d(192, eps=1e-05, momentum=0.1, affine=True, track_running_stats=True)
          (act1): GELU(approximate='none')
          (conv2): Conv2d(192, 192, kernel_size=(3, 3), stride=(1, 1), padding=(1, 1))
          (norm2): BatchNorm2d(192, eps=1e-05, momentum=0.1, affine=True, track_running_stats=True)
          (drop_path): DropPath(drop_prob=0.033)
        )
        (1): ConvBlock(
          (conv1): Conv2d(192, 192, kernel_size=(3, 3), stride=(1, 1), padding=(1, 1))
          (norm1): BatchNorm2d(192, eps=1e-05, momentum=0.1, affine=True, track_running_stats=True)
          (act1): GELU(approximate='none')
          (conv2): Conv2d(192, 192, kernel_size=(3, 3), stride=(1, 1), padding=(1, 1))
          (norm2): BatchNorm2d(192, eps=1e-05, momentum=0.1, affine=True, track_running_stats=True)
          (drop_path): DropPath(drop_prob=0.044)
        )
        (2): ConvBlock(
          (conv1): Conv2d(192, 192, kernel_size=(3, 3), stride=(1, 1), padding=(1, 1))
          (norm1): BatchNorm2d(192, eps=1e-05, momentum=0.1, affine=True, track_running_stats=True)
          (act1): GELU(approximate='none')
          (conv2): Conv2d(192, 192, kernel_size=(3, 3), stride=(1, 1), padding=(1, 1))
          (norm2): BatchNorm2d(192, eps=1e-05, momentum=0.1, affine=True, track_running_stats=True)
          (drop_path): DropPath(drop_prob=0.056)
        )
      )
      (downsample): Downsample(
        (norm): LayerNorm2d((192,), eps=1e-06, elementwise_affine=True)
        (reduction): Sequential(
          (0): Conv2d(192, 384, kernel_size=(3, 3), stride=(2, 2), padding=(1, 1), bias=False)
        )
      )
    )
    (2): FasterViTLayer(
      (blocks): ModuleList(
        (0): HAT(
          (pos_embed): PosEmbMLPSwinv1D(
            (cpb_mlp): Sequential(
              (0): Linear(in_features=2, out_features=512, bias=True)
              (1): ReLU()
              (2): Linear(in_features=512, out_features=384, bias=False)
            )
          )
          (norm1): LayerNorm((384,), eps=1e-05, elementwise_affine=True)
          (attn): WindowAttention(
            (qkv): Linear(in_features=384, out_features=1152, bias=True)
            (attn_drop): Dropout(p=0.0, inplace=False)
            (proj): Linear(in_features=384, out_features=384, bias=True)
            (proj_drop): Dropout(p=0.0, inplace=False)
            (pos_emb_funct): PosEmbMLPSwinv2D(
              (cpb_mlp): Sequential(
                (0): Linear(in_features=2, out_features=512, bias=True)
                (1): ReLU(inplace=True)
                (2): Linear(in_features=512, out_features=8, bias=False)
              )
            )
          )
          (drop_path): DropPath(drop_prob=0.067)
          (norm2): LayerNorm((384,), eps=1e-05, elementwise_affine=True)
          (mlp): Mlp(
            (fc1): Linear(in_features=384, out_features=1536, bias=True)
            (act): GELU(approximate='none')
            (fc2): Linear(in_features=1536, out_features=384, bias=True)
            (drop): Dropout(p=0.0, inplace=False)
          )
          (hat_norm1): LayerNorm((384,), eps=1e-05, elementwise_affine=True)
          (hat_norm2): LayerNorm((384,), eps=1e-05, elementwise_affine=True)
          (hat_attn): WindowAttention(
            (qkv): Linear(in_features=384, out_features=1152, bias=True)
            (attn_drop): Dropout(p=0.0, inplace=False)
            (proj): Linear(in_features=384, out_features=384, bias=True)
            (proj_drop): Dropout(p=0.0, inplace=False)
            (pos_emb_funct): PosEmbMLPSwinv2D(
              (cpb_mlp): Sequential(
                (0): Linear(in_features=2, out_features=512, bias=True)
                (1): ReLU(inplace=True)
                (2): Linear(in_features=512, out_features=8, bias=False)
              )
            )
          )
          (hat_mlp): Mlp(
            (fc1): Linear(in_features=384, out_features=1536, bias=True)
            (act): GELU(approximate='none')
            (fc2): Linear(in_features=1536, out_features=384, bias=True)
            (drop): Dropout(p=0.0, inplace=False)
          )
          (hat_drop_path): DropPath(drop_prob=0.067)
          (hat_pos_embed): PosEmbMLPSwinv1D(
            (cpb_mlp): Sequential(
              (0): Linear(in_features=2, out_features=512, bias=True)
              (1): ReLU()
              (2): Linear(in_features=512, out_features=384, bias=False)
            )
          )
          (upsampler): Upsample(size=7, mode='nearest')
        )
        (1): HAT(
          (pos_embed): PosEmbMLPSwinv1D(
            (cpb_mlp): Sequential(
              (0): Linear(in_features=2, out_features=512, bias=True)
              (1): ReLU()
              (2): Linear(in_features=512, out_features=384, bias=False)
            )
          )
          (norm1): LayerNorm((384,), eps=1e-05, elementwise_affine=True)
          (attn): WindowAttention(
            (qkv): Linear(in_features=384, out_features=1152, bias=True)
            (attn_drop): Dropout(p=0.0, inplace=False)
            (proj): Linear(in_features=384, out_features=384, bias=True)
            (proj_drop): Dropout(p=0.0, inplace=False)
            (pos_emb_funct): PosEmbMLPSwinv2D(
              (cpb_mlp): Sequential(
                (0): Linear(in_features=2, out_features=512, bias=True)
                (1): ReLU(inplace=True)
                (2): Linear(in_features=512, out_features=8, bias=False)
              )
            )
          )
          (drop_path): DropPath(drop_prob=0.078)
          (norm2): LayerNorm((384,), eps=1e-05, elementwise_affine=True)
          (mlp): Mlp(
            (fc1): Linear(in_features=384, out_features=1536, bias=True)
            (act): GELU(approximate='none')
            (fc2): Linear(in_features=1536, out_features=384, bias=True)
            (drop): Dropout(p=0.0, inplace=False)
          )
          (hat_norm1): LayerNorm((384,), eps=1e-05, elementwise_affine=True)
          (hat_norm2): LayerNorm((384,), eps=1e-05, elementwise_affine=True)
          (hat_attn): WindowAttention(
            (qkv): Linear(in_features=384, out_features=1152, bias=True)
            (attn_drop): Dropout(p=0.0, inplace=False)
            (proj): Linear(in_features=384, out_features=384, bias=True)
            (proj_drop): Dropout(p=0.0, inplace=False)
            (pos_emb_funct): PosEmbMLPSwinv2D(
              (cpb_mlp): Sequential(
                (0): Linear(in_features=2, out_features=512, bias=True)
                (1): ReLU(inplace=True)
                (2): Linear(in_features=512, out_features=8, bias=False)
              )
            )
          )
          (hat_mlp): Mlp(
            (fc1): Linear(in_features=384, out_features=1536, bias=True)
            (act): GELU(approximate='none')
            (fc2): Linear(in_features=1536, out_features=384, bias=True)
            (drop): Dropout(p=0.0, inplace=False)
          )
          (hat_drop_path): DropPath(drop_prob=0.078)
          (hat_pos_embed): PosEmbMLPSwinv1D(
            (cpb_mlp): Sequential(
              (0): Linear(in_features=2, out_features=512, bias=True)
              (1): ReLU()
              (2): Linear(in_features=512, out_features=384, bias=False)
            )
          )
          (upsampler): Upsample(size=7, mode='nearest')
        )
        (2): HAT(
          (pos_embed): PosEmbMLPSwinv1D(
            (cpb_mlp): Sequential(
              (0): Linear(in_features=2, out_features=512, bias=True)
              (1): ReLU()
              (2): Linear(in_features=512, out_features=384, bias=False)
            )
          )
          (norm1): LayerNorm((384,), eps=1e-05, elementwise_affine=True)
          (attn): WindowAttention(
            (qkv): Linear(in_features=384, out_features=1152, bias=True)
            (attn_drop): Dropout(p=0.0, inplace=False)
            (proj): Linear(in_features=384, out_features=384, bias=True)
            (proj_drop): Dropout(p=0.0, inplace=False)
            (pos_emb_funct): PosEmbMLPSwinv2D(
              (cpb_mlp): Sequential(
                (0): Linear(in_features=2, out_features=512, bias=True)
                (1): ReLU(inplace=True)
                (2): Linear(in_features=512, out_features=8, bias=False)
              )
            )
          )
          (drop_path): DropPath(drop_prob=0.089)
          (norm2): LayerNorm((384,), eps=1e-05, elementwise_affine=True)
          (mlp): Mlp(
            (fc1): Linear(in_features=384, out_features=1536, bias=True)
            (act): GELU(approximate='none')
            (fc2): Linear(in_features=1536, out_features=384, bias=True)
            (drop): Dropout(p=0.0, inplace=False)
          )
          (hat_norm1): LayerNorm((384,), eps=1e-05, elementwise_affine=True)
          (hat_norm2): LayerNorm((384,), eps=1e-05, elementwise_affine=True)
          (hat_attn): WindowAttention(
            (qkv): Linear(in_features=384, out_features=1152, bias=True)
            (attn_drop): Dropout(p=0.0, inplace=False)
            (proj): Linear(in_features=384, out_features=384, bias=True)
            (proj_drop): Dropout(p=0.0, inplace=False)
            (pos_emb_funct): PosEmbMLPSwinv2D(
              (cpb_mlp): Sequential(
                (0): Linear(in_features=2, out_features=512, bias=True)
                (1): ReLU(inplace=True)
                (2): Linear(in_features=512, out_features=8, bias=False)
              )
            )
          )
          (hat_mlp): Mlp(
            (fc1): Linear(in_features=384, out_features=1536, bias=True)
            (act): GELU(approximate='none')
            (fc2): Linear(in_features=1536, out_features=384, bias=True)
            (drop): Dropout(p=0.0, inplace=False)
          )
          (hat_drop_path): DropPath(drop_prob=0.089)
          (hat_pos_embed): PosEmbMLPSwinv1D(
            (cpb_mlp): Sequential(
              (0): Linear(in_features=2, out_features=512, bias=True)
              (1): ReLU()
              (2): Linear(in_features=512, out_features=384, bias=False)
            )
          )
          (upsampler): Upsample(size=7, mode='nearest')
        )
        (3): HAT(
          (pos_embed): PosEmbMLPSwinv1D(
            (cpb_mlp): Sequential(
              (0): Linear(in_features=2, out_features=512, bias=True)
              (1): ReLU()
              (2): Linear(in_features=512, out_features=384, bias=False)
            )
          )
          (norm1): LayerNorm((384,), eps=1e-05, elementwise_affine=True)
          (attn): WindowAttention(
            (qkv): Linear(in_features=384, out_features=1152, bias=True)
            (attn_drop): Dropout(p=0.0, inplace=False)
            (proj): Linear(in_features=384, out_features=384, bias=True)
            (proj_drop): Dropout(p=0.0, inplace=False)
            (pos_emb_funct): PosEmbMLPSwinv2D(
              (cpb_mlp): Sequential(
                (0): Linear(in_features=2, out_features=512, bias=True)
                (1): ReLU(inplace=True)
                (2): Linear(in_features=512, out_features=8, bias=False)
              )
            )
          )
          (drop_path): DropPath(drop_prob=0.100)
          (norm2): LayerNorm((384,), eps=1e-05, elementwise_affine=True)
          (mlp): Mlp(
            (fc1): Linear(in_features=384, out_features=1536, bias=True)
            (act): GELU(approximate='none')
            (fc2): Linear(in_features=1536, out_features=384, bias=True)
            (drop): Dropout(p=0.0, inplace=False)
          )
          (hat_norm1): LayerNorm((384,), eps=1e-05, elementwise_affine=True)
          (hat_norm2): LayerNorm((384,), eps=1e-05, elementwise_affine=True)
          (hat_attn): WindowAttention(
            (qkv): Linear(in_features=384, out_features=1152, bias=True)
            (attn_drop): Dropout(p=0.0, inplace=False)
            (proj): Linear(in_features=384, out_features=384, bias=True)
            (proj_drop): Dropout(p=0.0, inplace=False)
            (pos_emb_funct): PosEmbMLPSwinv2D(
              (cpb_mlp): Sequential(
                (0): Linear(in_features=2, out_features=512, bias=True)
                (1): ReLU(inplace=True)
                (2): Linear(in_features=512, out_features=8, bias=False)
              )
            )
          )
          (hat_mlp): Mlp(
            (fc1): Linear(in_features=384, out_features=1536, bias=True)
            (act): GELU(approximate='none')
            (fc2): Linear(in_features=1536, out_features=384, bias=True)
            (drop): Dropout(p=0.0, inplace=False)
          )
          (hat_drop_path): DropPath(drop_prob=0.100)
          (hat_pos_embed): PosEmbMLPSwinv1D(
            (cpb_mlp): Sequential(
              (0): Linear(in_features=2, out_features=512, bias=True)
              (1): ReLU()
              (2): Linear(in_features=512, out_features=384, bias=False)
            )
          )
          (upsampler): Upsample(size=7, mode='nearest')
        )
        (4): HAT(
          (pos_embed): PosEmbMLPSwinv1D(
            (cpb_mlp): Sequential(
              (0): Linear(in_features=2, out_features=512, bias=True)
              (1): ReLU()
              (2): Linear(in_features=512, out_features=384, bias=False)
            )
          )
          (norm1): LayerNorm((384,), eps=1e-05, elementwise_affine=True)
          (attn): WindowAttention(
            (qkv): Linear(in_features=384, out_features=1152, bias=True)
            (attn_drop): Dropout(p=0.0, inplace=False)
            (proj): Linear(in_features=384, out_features=384, bias=True)
            (proj_drop): Dropout(p=0.0, inplace=False)
            (pos_emb_funct): PosEmbMLPSwinv2D(
              (cpb_mlp): Sequential(
                (0): Linear(in_features=2, out_features=512, bias=True)
                (1): ReLU(inplace=True)
                (2): Linear(in_features=512, out_features=8, bias=False)
              )
            )
          )
          (drop_path): DropPath(drop_prob=0.111)
          (norm2): LayerNorm((384,), eps=1e-05, elementwise_affine=True)
          (mlp): Mlp(
            (fc1): Linear(in_features=384, out_features=1536, bias=True)
            (act): GELU(approximate='none')
            (fc2): Linear(in_features=1536, out_features=384, bias=True)
            (drop): Dropout(p=0.0, inplace=False)
          )
          (hat_norm1): LayerNorm((384,), eps=1e-05, elementwise_affine=True)
          (hat_norm2): LayerNorm((384,), eps=1e-05, elementwise_affine=True)
          (hat_attn): WindowAttention(
            (qkv): Linear(in_features=384, out_features=1152, bias=True)
            (attn_drop): Dropout(p=0.0, inplace=False)
            (proj): Linear(in_features=384, out_features=384, bias=True)
            (proj_drop): Dropout(p=0.0, inplace=False)
            (pos_emb_funct): PosEmbMLPSwinv2D(
              (cpb_mlp): Sequential(
                (0): Linear(in_features=2, out_features=512, bias=True)
                (1): ReLU(inplace=True)
                (2): Linear(in_features=512, out_features=8, bias=False)
              )
            )
          )
          (hat_mlp): Mlp(
            (fc1): Linear(in_features=384, out_features=1536, bias=True)
            (act): GELU(approximate='none')
            (fc2): Linear(in_features=1536, out_features=384, bias=True)
            (drop): Dropout(p=0.0, inplace=False)
          )
          (hat_drop_path): DropPath(drop_prob=0.111)
          (hat_pos_embed): PosEmbMLPSwinv1D(
            (cpb_mlp): Sequential(
              (0): Linear(in_features=2, out_features=512, bias=True)
              (1): ReLU()
              (2): Linear(in_features=512, out_features=384, bias=False)
            )
          )
          (upsampler): Upsample(size=7, mode='nearest')
        )
        (5): HAT(
          (pos_embed): PosEmbMLPSwinv1D(
            (cpb_mlp): Sequential(
              (0): Linear(in_features=2, out_features=512, bias=True)
              (1): ReLU()
              (2): Linear(in_features=512, out_features=384, bias=False)
            )
          )
          (norm1): LayerNorm((384,), eps=1e-05, elementwise_affine=True)
          (attn): WindowAttention(
            (qkv): Linear(in_features=384, out_features=1152, bias=True)
            (attn_drop): Dropout(p=0.0, inplace=False)
            (proj): Linear(in_features=384, out_features=384, bias=True)
            (proj_drop): Dropout(p=0.0, inplace=False)
            (pos_emb_funct): PosEmbMLPSwinv2D(
              (cpb_mlp): Sequential(
                (0): Linear(in_features=2, out_features=512, bias=True)
                (1): ReLU(inplace=True)
                (2): Linear(in_features=512, out_features=8, bias=False)
              )
            )
          )
          (drop_path): DropPath(drop_prob=0.122)
          (norm2): LayerNorm((384,), eps=1e-05, elementwise_affine=True)
          (mlp): Mlp(
            (fc1): Linear(in_features=384, out_features=1536, bias=True)
            (act): GELU(approximate='none')
            (fc2): Linear(in_features=1536, out_features=384, bias=True)
            (drop): Dropout(p=0.0, inplace=False)
          )
          (hat_norm1): LayerNorm((384,), eps=1e-05, elementwise_affine=True)
          (hat_norm2): LayerNorm((384,), eps=1e-05, elementwise_affine=True)
          (hat_attn): WindowAttention(
            (qkv): Linear(in_features=384, out_features=1152, bias=True)
            (attn_drop): Dropout(p=0.0, inplace=False)
            (proj): Linear(in_features=384, out_features=384, bias=True)
            (proj_drop): Dropout(p=0.0, inplace=False)
            (pos_emb_funct): PosEmbMLPSwinv2D(
              (cpb_mlp): Sequential(
                (0): Linear(in_features=2, out_features=512, bias=True)
                (1): ReLU(inplace=True)
                (2): Linear(in_features=512, out_features=8, bias=False)
              )
            )
          )
          (hat_mlp): Mlp(
            (fc1): Linear(in_features=384, out_features=1536, bias=True)
            (act): GELU(approximate='none')
            (fc2): Linear(in_features=1536, out_features=384, bias=True)
            (drop): Dropout(p=0.0, inplace=False)
          )
          (hat_drop_path): DropPath(drop_prob=0.122)
          (hat_pos_embed): PosEmbMLPSwinv1D(
            (cpb_mlp): Sequential(
              (0): Linear(in_features=2, out_features=512, bias=True)
              (1): ReLU()
              (2): Linear(in_features=512, out_features=384, bias=False)
            )
          )
          (upsampler): Upsample(size=7, mode='nearest')
        )
        (6): HAT(
          (pos_embed): PosEmbMLPSwinv1D(
            (cpb_mlp): Sequential(
              (0): Linear(in_features=2, out_features=512, bias=True)
              (1): ReLU()
              (2): Linear(in_features=512, out_features=384, bias=False)
            )
          )
          (norm1): LayerNorm((384,), eps=1e-05, elementwise_affine=True)
          (attn): WindowAttention(
            (qkv): Linear(in_features=384, out_features=1152, bias=True)
            (attn_drop): Dropout(p=0.0, inplace=False)
            (proj): Linear(in_features=384, out_features=384, bias=True)
            (proj_drop): Dropout(p=0.0, inplace=False)
            (pos_emb_funct): PosEmbMLPSwinv2D(
              (cpb_mlp): Sequential(
                (0): Linear(in_features=2, out_features=512, bias=True)
                (1): ReLU(inplace=True)
                (2): Linear(in_features=512, out_features=8, bias=False)
              )
            )
          )
          (drop_path): DropPath(drop_prob=0.133)
          (norm2): LayerNorm((384,), eps=1e-05, elementwise_affine=True)
          (mlp): Mlp(
            (fc1): Linear(in_features=384, out_features=1536, bias=True)
            (act): GELU(approximate='none')
            (fc2): Linear(in_features=1536, out_features=384, bias=True)
            (drop): Dropout(p=0.0, inplace=False)
          )
          (hat_norm1): LayerNorm((384,), eps=1e-05, elementwise_affine=True)
          (hat_norm2): LayerNorm((384,), eps=1e-05, elementwise_affine=True)
          (hat_attn): WindowAttention(
            (qkv): Linear(in_features=384, out_features=1152, bias=True)
            (attn_drop): Dropout(p=0.0, inplace=False)
            (proj): Linear(in_features=384, out_features=384, bias=True)
            (proj_drop): Dropout(p=0.0, inplace=False)
            (pos_emb_funct): PosEmbMLPSwinv2D(
              (cpb_mlp): Sequential(
                (0): Linear(in_features=2, out_features=512, bias=True)
                (1): ReLU(inplace=True)
                (2): Linear(in_features=512, out_features=8, bias=False)
              )
            )
          )
          (hat_mlp): Mlp(
            (fc1): Linear(in_features=384, out_features=1536, bias=True)
            (act): GELU(approximate='none')
            (fc2): Linear(in_features=1536, out_features=384, bias=True)
            (drop): Dropout(p=0.0, inplace=False)
          )
          (hat_drop_path): DropPath(drop_prob=0.133)
          (hat_pos_embed): PosEmbMLPSwinv1D(
            (cpb_mlp): Sequential(
              (0): Linear(in_features=2, out_features=512, bias=True)
              (1): ReLU()
              (2): Linear(in_features=512, out_features=384, bias=False)
            )
          )
          (upsampler): Upsample(size=7, mode='nearest')
        )
        (7): HAT(
          (pos_embed): PosEmbMLPSwinv1D(
            (cpb_mlp): Sequential(
              (0): Linear(in_features=2, out_features=512, bias=True)
              (1): ReLU()
              (2): Linear(in_features=512, out_features=384, bias=False)
            )
          )
          (norm1): LayerNorm((384,), eps=1e-05, elementwise_affine=True)
          (attn): WindowAttention(
            (qkv): Linear(in_features=384, out_features=1152, bias=True)
            (attn_drop): Dropout(p=0.0, inplace=False)
            (proj): Linear(in_features=384, out_features=384, bias=True)
            (proj_drop): Dropout(p=0.0, inplace=False)
            (pos_emb_funct): PosEmbMLPSwinv2D(
              (cpb_mlp): Sequential(
                (0): Linear(in_features=2, out_features=512, bias=True)
                (1): ReLU(inplace=True)
                (2): Linear(in_features=512, out_features=8, bias=False)
              )
            )
          )
          (drop_path): DropPath(drop_prob=0.144)
          (norm2): LayerNorm((384,), eps=1e-05, elementwise_affine=True)
          (mlp): Mlp(
            (fc1): Linear(in_features=384, out_features=1536, bias=True)
            (act): GELU(approximate='none')
            (fc2): Linear(in_features=1536, out_features=384, bias=True)
            (drop): Dropout(p=0.0, inplace=False)
          )
          (hat_norm1): LayerNorm((384,), eps=1e-05, elementwise_affine=True)
          (hat_norm2): LayerNorm((384,), eps=1e-05, elementwise_affine=True)
          (hat_attn): WindowAttention(
            (qkv): Linear(in_features=384, out_features=1152, bias=True)
            (attn_drop): Dropout(p=0.0, inplace=False)
            (proj): Linear(in_features=384, out_features=384, bias=True)
            (proj_drop): Dropout(p=0.0, inplace=False)
            (pos_emb_funct): PosEmbMLPSwinv2D(
              (cpb_mlp): Sequential(
                (0): Linear(in_features=2, out_features=512, bias=True)
                (1): ReLU(inplace=True)
                (2): Linear(in_features=512, out_features=8, bias=False)
              )
            )
          )
          (hat_mlp): Mlp(
            (fc1): Linear(in_features=384, out_features=1536, bias=True)
            (act): GELU(approximate='none')
            (fc2): Linear(in_features=1536, out_features=384, bias=True)
            (drop): Dropout(p=0.0, inplace=False)
          )
          (hat_drop_path): DropPath(drop_prob=0.144)
          (hat_pos_embed): PosEmbMLPSwinv1D(
            (cpb_mlp): Sequential(
              (0): Linear(in_features=2, out_features=512, bias=True)
              (1): ReLU()
              (2): Linear(in_features=512, out_features=384, bias=False)
            )
          )
          (upsampler): Upsample(size=7, mode='nearest')
        )
      )
      (downsample): Downsample(
        (norm): LayerNorm2d((384,), eps=1e-06, elementwise_affine=True)
        (reduction): Sequential(
          (0): Conv2d(384, 768, kernel_size=(3, 3), stride=(2, 2), padding=(1, 1), bias=False)
        )
      )
      (global_tokenizer): TokenInitializer(
        (pos_embed): Conv2d(384, 384, kernel_size=(3, 3), stride=(1, 1), padding=(1, 1), groups=384)
        (to_global_feature): Sequential(
          (pos): Conv2d(384, 384, kernel_size=(3, 3), stride=(1, 1), padding=(1, 1), groups=384)
          (pool): AvgPool2d(kernel_size=5, stride=3, padding=0)
        )
      )
    )
    (3): FasterViTLayer(
      (blocks): ModuleList(
        (0): HAT(
          (pos_embed): PosEmbMLPSwinv1D(
            (cpb_mlp): Sequential(
              (0): Linear(in_features=2, out_features=512, bias=True)
              (1): ReLU()
              (2): Linear(in_features=512, out_features=768, bias=False)
            )
          )
          (norm1): LayerNorm((768,), eps=1e-05, elementwise_affine=True)
          (attn): WindowAttention(
            (qkv): Linear(in_features=768, out_features=2304, bias=True)
            (attn_drop): Dropout(p=0.0, inplace=False)
            (proj): Linear(in_features=768, out_features=768, bias=True)
            (proj_drop): Dropout(p=0.0, inplace=False)
            (pos_emb_funct): PosEmbMLPSwinv2D(
              (cpb_mlp): Sequential(
                (0): Linear(in_features=2, out_features=512, bias=True)
                (1): ReLU(inplace=True)
                (2): Linear(in_features=512, out_features=16, bias=False)
              )
            )
          )
          (drop_path): DropPath(drop_prob=0.156)
          (norm2): LayerNorm((768,), eps=1e-05, elementwise_affine=True)
          (mlp): Mlp(
            (fc1): Linear(in_features=768, out_features=3072, bias=True)
            (act): GELU(approximate='none')
            (fc2): Linear(in_features=3072, out_features=768, bias=True)
            (drop): Dropout(p=0.0, inplace=False)
          )
        )
        (1): HAT(
          (pos_embed): PosEmbMLPSwinv1D(
            (cpb_mlp): Sequential(
              (0): Linear(in_features=2, out_features=512, bias=True)
              (1): ReLU()
              (2): Linear(in_features=512, out_features=768, bias=False)
            )
          )
          (norm1): LayerNorm((768,), eps=1e-05, elementwise_affine=True)
          (attn): WindowAttention(
            (qkv): Linear(in_features=768, out_features=2304, bias=True)
            (attn_drop): Dropout(p=0.0, inplace=False)
            (proj): Linear(in_features=768, out_features=768, bias=True)
            (proj_drop): Dropout(p=0.0, inplace=False)
            (pos_emb_funct): PosEmbMLPSwinv2D(
              (cpb_mlp): Sequential(
                (0): Linear(in_features=2, out_features=512, bias=True)
                (1): ReLU(inplace=True)
                (2): Linear(in_features=512, out_features=16, bias=False)
              )
            )
          )
          (drop_path): DropPath(drop_prob=0.167)
          (norm2): LayerNorm((768,), eps=1e-05, elementwise_affine=True)
          (mlp): Mlp(
            (fc1): Linear(in_features=768, out_features=3072, bias=True)
            (act): GELU(approximate='none')
            (fc2): Linear(in_features=3072, out_features=768, bias=True)
            (drop): Dropout(p=0.0, inplace=False)
          )
        )
        (2): HAT(
          (pos_embed): PosEmbMLPSwinv1D(
            (cpb_mlp): Sequential(
              (0): Linear(in_features=2, out_features=512, bias=True)
              (1): ReLU()
              (2): Linear(in_features=512, out_features=768, bias=False)
            )
          )
          (norm1): LayerNorm((768,), eps=1e-05, elementwise_affine=True)
          (attn): WindowAttention(
            (qkv): Linear(in_features=768, out_features=2304, bias=True)
            (attn_drop): Dropout(p=0.0, inplace=False)
            (proj): Linear(in_features=768, out_features=768, bias=True)
            (proj_drop): Dropout(p=0.0, inplace=False)
            (pos_emb_funct): PosEmbMLPSwinv2D(
              (cpb_mlp): Sequential(
                (0): Linear(in_features=2, out_features=512, bias=True)
                (1): ReLU(inplace=True)
                (2): Linear(in_features=512, out_features=16, bias=False)
              )
            )
          )
          (drop_path): DropPath(drop_prob=0.178)
          (norm2): LayerNorm((768,), eps=1e-05, elementwise_affine=True)
          (mlp): Mlp(
            (fc1): Linear(in_features=768, out_features=3072, bias=True)
            (act): GELU(approximate='none')
            (fc2): Linear(in_features=3072, out_features=768, bias=True)
            (drop): Dropout(p=0.0, inplace=False)
          )
        )
        (3): HAT(
          (pos_embed): PosEmbMLPSwinv1D(
            (cpb_mlp): Sequential(
              (0): Linear(in_features=2, out_features=512, bias=True)
              (1): ReLU()
              (2): Linear(in_features=512, out_features=768, bias=False)
            )
          )
          (norm1): LayerNorm((768,), eps=1e-05, elementwise_affine=True)
          (attn): WindowAttention(
            (qkv): Linear(in_features=768, out_features=2304, bias=True)
            (attn_drop): Dropout(p=0.0, inplace=False)
            (proj): Linear(in_features=768, out_features=768, bias=True)
            (proj_drop): Dropout(p=0.0, inplace=False)
            (pos_emb_funct): PosEmbMLPSwinv2D(
              (cpb_mlp): Sequential(
                (0): Linear(in_features=2, out_features=512, bias=True)
                (1): ReLU(inplace=True)
                (2): Linear(in_features=512, out_features=16, bias=False)
              )
            )
          )
          (drop_path): DropPath(drop_prob=0.189)
          (norm2): LayerNorm((768,), eps=1e-05, elementwise_affine=True)
          (mlp): Mlp(
            (fc1): Linear(in_features=768, out_features=3072, bias=True)
            (act): GELU(approximate='none')
            (fc2): Linear(in_features=3072, out_features=768, bias=True)
            (drop): Dropout(p=0.0, inplace=False)
          )
        )
        (4): HAT(
          (pos_embed): PosEmbMLPSwinv1D(
            (cpb_mlp): Sequential(
              (0): Linear(in_features=2, out_features=512, bias=True)
              (1): ReLU()
              (2): Linear(in_features=512, out_features=768, bias=False)
            )
          )
          (norm1): LayerNorm((768,), eps=1e-05, elementwise_affine=True)
          (attn): WindowAttention(
            (qkv): Linear(in_features=768, out_features=2304, bias=True)
            (attn_drop): Dropout(p=0.0, inplace=False)
            (proj): Linear(in_features=768, out_features=768, bias=True)
            (proj_drop): Dropout(p=0.0, inplace=False)
            (pos_emb_funct): PosEmbMLPSwinv2D(
              (cpb_mlp): Sequential(
                (0): Linear(in_features=2, out_features=512, bias=True)
                (1): ReLU(inplace=True)
                (2): Linear(in_features=512, out_features=16, bias=False)
              )
            )
          )
          (drop_path): DropPath(drop_prob=0.200)
          (norm2): LayerNorm((768,), eps=1e-05, elementwise_affine=True)
          (mlp): Mlp(
            (fc1): Linear(in_features=768, out_features=3072, bias=True)
            (act): GELU(approximate='none')
            (fc2): Linear(in_features=3072, out_features=768, bias=True)
            (drop): Dropout(p=0.0, inplace=False)
          )
        )
      )
    )
  )
  (norm): BatchNorm2d(768, eps=1e-05, momentum=0.1, affine=True, track_running_stats=True)
  (avgpool): AdaptiveAvgPool2d(output_size=1)
  (head): Linear(in_features=768, out_features=2, bias=True)
)
FasterViT(
  (patch_embed): PatchEmbed(
    (proj): Identity()
    (conv_down): Sequential(
      (0): Conv2d(3, 64, kernel_size=(3, 3), stride=(2, 2), padding=(1, 1), bias=False)
      (1): BatchNorm2d(64, eps=0.0001, momentum=0.1, affine=True, track_running_stats=True)
      (2): ReLU()
      (3): Conv2d(64, 96, kernel_size=(3, 3), stride=(2, 2), padding=(1, 1), bias=False)
      (4): BatchNorm2d(96, eps=0.0001, momentum=0.1, affine=True, track_running_stats=True)
      (5): ReLU()
    )
  )
  (levels): ModuleList(
    (0): FasterViTLayer(
      (blocks): ModuleList(
        (0): ConvBlock(
          (conv1): Conv2d(96, 96, kernel_size=(3, 3), stride=(1, 1), padding=(1, 1))
          (norm1): BatchNorm2d(96, eps=1e-05, momentum=0.1, affine=True, track_running_stats=True)
          (act1): GELU(approximate='none')
          (conv2): Conv2d(96, 96, kernel_size=(3, 3), stride=(1, 1), padding=(1, 1))
          (norm2): BatchNorm2d(96, eps=1e-05, momentum=0.1, affine=True, track_running_stats=True)
          (drop_path): Identity()
        )
        (1): ConvBlock(
          (conv1): Conv2d(96, 96, kernel_size=(3, 3), stride=(1, 1), padding=(1, 1))
          (norm1): BatchNorm2d(96, eps=1e-05, momentum=0.1, affine=True, track_running_stats=True)
          (act1): GELU(approximate='none')
          (conv2): Conv2d(96, 96, kernel_size=(3, 3), stride=(1, 1), padding=(1, 1))
          (norm2): BatchNorm2d(96, eps=1e-05, momentum=0.1, affine=True, track_running_stats=True)
          (drop_path): DropPath(drop_prob=0.011)
        )
        (2): ConvBlock(
          (conv1): Conv2d(96, 96, kernel_size=(3, 3), stride=(1, 1), padding=(1, 1))
          (norm1): BatchNorm2d(96, eps=1e-05, momentum=0.1, affine=True, track_running_stats=True)
          (act1): GELU(approximate='none')
          (conv2): Conv2d(96, 96, kernel_size=(3, 3), stride=(1, 1), padding=(1, 1))
          (norm2): BatchNorm2d(96, eps=1e-05, momentum=0.1, affine=True, track_running_stats=True)
          (drop_path): DropPath(drop_prob=0.022)
        )
      )
      (downsample): Downsample(
        (norm): LayerNorm2d((96,), eps=1e-06, elementwise_affine=True)
        (reduction): Sequential(
          (0): Conv2d(96, 192, kernel_size=(3, 3), stride=(2, 2), padding=(1, 1), bias=False)
        )
      )
    )
    (1): FasterViTLayer(
      (blocks): ModuleList(
        (0): ConvBlock(
          (conv1): Conv2d(192, 192, kernel_size=(3, 3), stride=(1, 1), padding=(1, 1))
          (norm1): BatchNorm2d(192, eps=1e-05, momentum=0.1, affine=True, track_running_stats=True)
          (act1): GELU(approximate='none')
          (conv2): Conv2d(192, 192, kernel_size=(3, 3), stride=(1, 1), padding=(1, 1))
          (norm2): BatchNorm2d(192, eps=1e-05, momentum=0.1, affine=True, track_running_stats=True)
          (drop_path): DropPath(drop_prob=0.033)
        )
        (1): ConvBlock(
          (conv1): Conv2d(192, 192, kernel_size=(3, 3), stride=(1, 1), padding=(1, 1))
          (norm1): BatchNorm2d(192, eps=1e-05, momentum=0.1, affine=True, track_running_stats=True)
          (act1): GELU(approximate='none')
          (conv2): Conv2d(192, 192, kernel_size=(3, 3), stride=(1, 1), padding=(1, 1))
          (norm2): BatchNorm2d(192, eps=1e-05, momentum=0.1, affine=True, track_running_stats=True)
          (drop_path): DropPath(drop_prob=0.044)
        )
        (2): ConvBlock(
          (conv1): Conv2d(192, 192, kernel_size=(3, 3), stride=(1, 1), padding=(1, 1))
          (norm1): BatchNorm2d(192, eps=1e-05, momentum=0.1, affine=True, track_running_stats=True)
          (act1): GELU(approximate='none')
          (conv2): Conv2d(192, 192, kernel_size=(3, 3), stride=(1, 1), padding=(1, 1))
          (norm2): BatchNorm2d(192, eps=1e-05, momentum=0.1, affine=True, track_running_stats=True)
          (drop_path): DropPath(drop_prob=0.056)
        )
      )
      (downsample): Downsample(
        (norm): LayerNorm2d((192,), eps=1e-06, elementwise_affine=True)
        (reduction): Sequential(
          (0): Conv2d(192, 384, kernel_size=(3, 3), stride=(2, 2), padding=(1, 1), bias=False)
        )
      )
    )
    (2): FasterViTLayer(
      (blocks): ModuleList(
        (0): HAT(
          (pos_embed): PosEmbMLPSwinv1D(
            (cpb_mlp): Sequential(
              (0): Linear(in_features=2, out_features=512, bias=True)
              (1): ReLU()
              (2): Linear(in_features=512, out_features=384, bias=False)
            )
          )
          (norm1): LayerNorm((384,), eps=1e-05, elementwise_affine=True)
          (attn): WindowAttention(
            (qkv): Linear(in_features=384, out_features=1152, bias=True)
            (attn_drop): Dropout(p=0.0, inplace=False)
            (proj): Linear(in_features=384, out_features=384, bias=True)
            (proj_drop): Dropout(p=0.0, inplace=False)
            (pos_emb_funct): PosEmbMLPSwinv2D(
              (cpb_mlp): Sequential(
                (0): Linear(in_features=2, out_features=512, bias=True)
                (1): ReLU(inplace=True)
                (2): Linear(in_features=512, out_features=8, bias=False)
              )
            )
          )
          (drop_path): DropPath(drop_prob=0.067)
          (norm2): LayerNorm((384,), eps=1e-05, elementwise_affine=True)
          (mlp): Mlp(
            (fc1): Linear(in_features=384, out_features=1536, bias=True)
            (act): GELU(approximate='none')
            (fc2): Linear(in_features=1536, out_features=384, bias=True)
            (drop): Dropout(p=0.0, inplace=False)
          )
          (hat_norm1): LayerNorm((384,), eps=1e-05, elementwise_affine=True)
          (hat_norm2): LayerNorm((384,), eps=1e-05, elementwise_affine=True)
          (hat_attn): WindowAttention(
            (qkv): Linear(in_features=384, out_features=1152, bias=True)
            (attn_drop): Dropout(p=0.0, inplace=False)
            (proj): Linear(in_features=384, out_features=384, bias=True)
            (proj_drop): Dropout(p=0.0, inplace=False)
            (pos_emb_funct): PosEmbMLPSwinv2D(
              (cpb_mlp): Sequential(
                (0): Linear(in_features=2, out_features=512, bias=True)
                (1): ReLU(inplace=True)
                (2): Linear(in_features=512, out_features=8, bias=False)
              )
            )
          )
          (hat_mlp): Mlp(
            (fc1): Linear(in_features=384, out_features=1536, bias=True)
            (act): GELU(approximate='none')
            (fc2): Linear(in_features=1536, out_features=384, bias=True)
            (drop): Dropout(p=0.0, inplace=False)
          )
          (hat_drop_path): DropPath(drop_prob=0.067)
          (hat_pos_embed): PosEmbMLPSwinv1D(
            (cpb_mlp): Sequential(
              (0): Linear(in_features=2, out_features=512, bias=True)
              (1): ReLU()
              (2): Linear(in_features=512, out_features=384, bias=False)
            )
          )
          (upsampler): Upsample(size=7, mode='nearest')
        )
        (1): HAT(
          (pos_embed): PosEmbMLPSwinv1D(
            (cpb_mlp): Sequential(
              (0): Linear(in_features=2, out_features=512, bias=True)
              (1): ReLU()
              (2): Linear(in_features=512, out_features=384, bias=False)
            )
          )
          (norm1): LayerNorm((384,), eps=1e-05, elementwise_affine=True)
          (attn): WindowAttention(
            (qkv): Linear(in_features=384, out_features=1152, bias=True)
            (attn_drop): Dropout(p=0.0, inplace=False)
            (proj): Linear(in_features=384, out_features=384, bias=True)
            (proj_drop): Dropout(p=0.0, inplace=False)
            (pos_emb_funct): PosEmbMLPSwinv2D(
              (cpb_mlp): Sequential(
                (0): Linear(in_features=2, out_features=512, bias=True)
                (1): ReLU(inplace=True)
                (2): Linear(in_features=512, out_features=8, bias=False)
              )
            )
          )
          (drop_path): DropPath(drop_prob=0.078)
          (norm2): LayerNorm((384,), eps=1e-05, elementwise_affine=True)
          (mlp): Mlp(
            (fc1): Linear(in_features=384, out_features=1536, bias=True)
            (act): GELU(approximate='none')
            (fc2): Linear(in_features=1536, out_features=384, bias=True)
            (drop): Dropout(p=0.0, inplace=False)
          )
          (hat_norm1): LayerNorm((384,), eps=1e-05, elementwise_affine=True)
          (hat_norm2): LayerNorm((384,), eps=1e-05, elementwise_affine=True)
          (hat_attn): WindowAttention(
            (qkv): Linear(in_features=384, out_features=1152, bias=True)
            (attn_drop): Dropout(p=0.0, inplace=False)
            (proj): Linear(in_features=384, out_features=384, bias=True)
            (proj_drop): Dropout(p=0.0, inplace=False)
            (pos_emb_funct): PosEmbMLPSwinv2D(
              (cpb_mlp): Sequential(
                (0): Linear(in_features=2, out_features=512, bias=True)
                (1): ReLU(inplace=True)
                (2): Linear(in_features=512, out_features=8, bias=False)
              )
            )
          )
          (hat_mlp): Mlp(
            (fc1): Linear(in_features=384, out_features=1536, bias=True)
            (act): GELU(approximate='none')
            (fc2): Linear(in_features=1536, out_features=384, bias=True)
            (drop): Dropout(p=0.0, inplace=False)
          )
          (hat_drop_path): DropPath(drop_prob=0.078)
          (hat_pos_embed): PosEmbMLPSwinv1D(
            (cpb_mlp): Sequential(
              (0): Linear(in_features=2, out_features=512, bias=True)
              (1): ReLU()
              (2): Linear(in_features=512, out_features=384, bias=False)
            )
          )
          (upsampler): Upsample(size=7, mode='nearest')
        )
        (2): HAT(
          (pos_embed): PosEmbMLPSwinv1D(
            (cpb_mlp): Sequential(
              (0): Linear(in_features=2, out_features=512, bias=True)
              (1): ReLU()
              (2): Linear(in_features=512, out_features=384, bias=False)
            )
          )
          (norm1): LayerNorm((384,), eps=1e-05, elementwise_affine=True)
          (attn): WindowAttention(
            (qkv): Linear(in_features=384, out_features=1152, bias=True)
            (attn_drop): Dropout(p=0.0, inplace=False)
            (proj): Linear(in_features=384, out_features=384, bias=True)
            (proj_drop): Dropout(p=0.0, inplace=False)
            (pos_emb_funct): PosEmbMLPSwinv2D(
              (cpb_mlp): Sequential(
                (0): Linear(in_features=2, out_features=512, bias=True)
                (1): ReLU(inplace=True)
                (2): Linear(in_features=512, out_features=8, bias=False)
              )
            )
          )
          (drop_path): DropPath(drop_prob=0.089)
          (norm2): LayerNorm((384,), eps=1e-05, elementwise_affine=True)
          (mlp): Mlp(
            (fc1): Linear(in_features=384, out_features=1536, bias=True)
            (act): GELU(approximate='none')
            (fc2): Linear(in_features=1536, out_features=384, bias=True)
            (drop): Dropout(p=0.0, inplace=False)
          )
          (hat_norm1): LayerNorm((384,), eps=1e-05, elementwise_affine=True)
          (hat_norm2): LayerNorm((384,), eps=1e-05, elementwise_affine=True)
          (hat_attn): WindowAttention(
            (qkv): Linear(in_features=384, out_features=1152, bias=True)
            (attn_drop): Dropout(p=0.0, inplace=False)
            (proj): Linear(in_features=384, out_features=384, bias=True)
            (proj_drop): Dropout(p=0.0, inplace=False)
            (pos_emb_funct): PosEmbMLPSwinv2D(
              (cpb_mlp): Sequential(
                (0): Linear(in_features=2, out_features=512, bias=True)
                (1): ReLU(inplace=True)
                (2): Linear(in_features=512, out_features=8, bias=False)
              )
            )
          )
          (hat_mlp): Mlp(
            (fc1): Linear(in_features=384, out_features=1536, bias=True)
            (act): GELU(approximate='none')
            (fc2): Linear(in_features=1536, out_features=384, bias=True)
            (drop): Dropout(p=0.0, inplace=False)
          )
          (hat_drop_path): DropPath(drop_prob=0.089)
          (hat_pos_embed): PosEmbMLPSwinv1D(
            (cpb_mlp): Sequential(
              (0): Linear(in_features=2, out_features=512, bias=True)
              (1): ReLU()
              (2): Linear(in_features=512, out_features=384, bias=False)
            )
          )
          (upsampler): Upsample(size=7, mode='nearest')
        )
        (3): HAT(
          (pos_embed): PosEmbMLPSwinv1D(
            (cpb_mlp): Sequential(
              (0): Linear(in_features=2, out_features=512, bias=True)
              (1): ReLU()
              (2): Linear(in_features=512, out_features=384, bias=False)
            )
          )
          (norm1): LayerNorm((384,), eps=1e-05, elementwise_affine=True)
          (attn): WindowAttention(
            (qkv): Linear(in_features=384, out_features=1152, bias=True)
            (attn_drop): Dropout(p=0.0, inplace=False)
            (proj): Linear(in_features=384, out_features=384, bias=True)
            (proj_drop): Dropout(p=0.0, inplace=False)
            (pos_emb_funct): PosEmbMLPSwinv2D(
              (cpb_mlp): Sequential(
                (0): Linear(in_features=2, out_features=512, bias=True)
                (1): ReLU(inplace=True)
                (2): Linear(in_features=512, out_features=8, bias=False)
              )
            )
          )
          (drop_path): DropPath(drop_prob=0.100)
          (norm2): LayerNorm((384,), eps=1e-05, elementwise_affine=True)
          (mlp): Mlp(
            (fc1): Linear(in_features=384, out_features=1536, bias=True)
            (act): GELU(approximate='none')
            (fc2): Linear(in_features=1536, out_features=384, bias=True)
            (drop): Dropout(p=0.0, inplace=False)
          )
          (hat_norm1): LayerNorm((384,), eps=1e-05, elementwise_affine=True)
          (hat_norm2): LayerNorm((384,), eps=1e-05, elementwise_affine=True)
          (hat_attn): WindowAttention(
            (qkv): Linear(in_features=384, out_features=1152, bias=True)
            (attn_drop): Dropout(p=0.0, inplace=False)
            (proj): Linear(in_features=384, out_features=384, bias=True)
            (proj_drop): Dropout(p=0.0, inplace=False)
            (pos_emb_funct): PosEmbMLPSwinv2D(
              (cpb_mlp): Sequential(
                (0): Linear(in_features=2, out_features=512, bias=True)
                (1): ReLU(inplace=True)
                (2): Linear(in_features=512, out_features=8, bias=False)
              )
            )
          )
          (hat_mlp): Mlp(
            (fc1): Linear(in_features=384, out_features=1536, bias=True)
            (act): GELU(approximate='none')
            (fc2): Linear(in_features=1536, out_features=384, bias=True)
            (drop): Dropout(p=0.0, inplace=False)
          )
          (hat_drop_path): DropPath(drop_prob=0.100)
          (hat_pos_embed): PosEmbMLPSwinv1D(
            (cpb_mlp): Sequential(
              (0): Linear(in_features=2, out_features=512, bias=True)
              (1): ReLU()
              (2): Linear(in_features=512, out_features=384, bias=False)
            )
          )
          (upsampler): Upsample(size=7, mode='nearest')
        )
        (4): HAT(
          (pos_embed): PosEmbMLPSwinv1D(
            (cpb_mlp): Sequential(
              (0): Linear(in_features=2, out_features=512, bias=True)
              (1): ReLU()
              (2): Linear(in_features=512, out_features=384, bias=False)
            )
          )
          (norm1): LayerNorm((384,), eps=1e-05, elementwise_affine=True)
          (attn): WindowAttention(
            (qkv): Linear(in_features=384, out_features=1152, bias=True)
            (attn_drop): Dropout(p=0.0, inplace=False)
            (proj): Linear(in_features=384, out_features=384, bias=True)
            (proj_drop): Dropout(p=0.0, inplace=False)
            (pos_emb_funct): PosEmbMLPSwinv2D(
              (cpb_mlp): Sequential(
                (0): Linear(in_features=2, out_features=512, bias=True)
                (1): ReLU(inplace=True)
                (2): Linear(in_features=512, out_features=8, bias=False)
              )
            )
          )
          (drop_path): DropPath(drop_prob=0.111)
          (norm2): LayerNorm((384,), eps=1e-05, elementwise_affine=True)
          (mlp): Mlp(
            (fc1): Linear(in_features=384, out_features=1536, bias=True)
            (act): GELU(approximate='none')
            (fc2): Linear(in_features=1536, out_features=384, bias=True)
            (drop): Dropout(p=0.0, inplace=False)
          )
          (hat_norm1): LayerNorm((384,), eps=1e-05, elementwise_affine=True)
          (hat_norm2): LayerNorm((384,), eps=1e-05, elementwise_affine=True)
          (hat_attn): WindowAttention(
            (qkv): Linear(in_features=384, out_features=1152, bias=True)
            (attn_drop): Dropout(p=0.0, inplace=False)
            (proj): Linear(in_features=384, out_features=384, bias=True)
            (proj_drop): Dropout(p=0.0, inplace=False)
            (pos_emb_funct): PosEmbMLPSwinv2D(
              (cpb_mlp): Sequential(
                (0): Linear(in_features=2, out_features=512, bias=True)
                (1): ReLU(inplace=True)
                (2): Linear(in_features=512, out_features=8, bias=False)
              )
            )
          )
          (hat_mlp): Mlp(
            (fc1): Linear(in_features=384, out_features=1536, bias=True)
            (act): GELU(approximate='none')
            (fc2): Linear(in_features=1536, out_features=384, bias=True)
            (drop): Dropout(p=0.0, inplace=False)
          )
          (hat_drop_path): DropPath(drop_prob=0.111)
          (hat_pos_embed): PosEmbMLPSwinv1D(
            (cpb_mlp): Sequential(
              (0): Linear(in_features=2, out_features=512, bias=True)
              (1): ReLU()
              (2): Linear(in_features=512, out_features=384, bias=False)
            )
          )
          (upsampler): Upsample(size=7, mode='nearest')
        )
        (5): HAT(
          (pos_embed): PosEmbMLPSwinv1D(
            (cpb_mlp): Sequential(
              (0): Linear(in_features=2, out_features=512, bias=True)
              (1): ReLU()
              (2): Linear(in_features=512, out_features=384, bias=False)
            )
          )
          (norm1): LayerNorm((384,), eps=1e-05, elementwise_affine=True)
          (attn): WindowAttention(
            (qkv): Linear(in_features=384, out_features=1152, bias=True)
            (attn_drop): Dropout(p=0.0, inplace=False)
            (proj): Linear(in_features=384, out_features=384, bias=True)
            (proj_drop): Dropout(p=0.0, inplace=False)
            (pos_emb_funct): PosEmbMLPSwinv2D(
              (cpb_mlp): Sequential(
                (0): Linear(in_features=2, out_features=512, bias=True)
                (1): ReLU(inplace=True)
                (2): Linear(in_features=512, out_features=8, bias=False)
              )
            )
          )
          (drop_path): DropPath(drop_prob=0.122)
          (norm2): LayerNorm((384,), eps=1e-05, elementwise_affine=True)
          (mlp): Mlp(
            (fc1): Linear(in_features=384, out_features=1536, bias=True)
            (act): GELU(approximate='none')
            (fc2): Linear(in_features=1536, out_features=384, bias=True)
            (drop): Dropout(p=0.0, inplace=False)
          )
          (hat_norm1): LayerNorm((384,), eps=1e-05, elementwise_affine=True)
          (hat_norm2): LayerNorm((384,), eps=1e-05, elementwise_affine=True)
          (hat_attn): WindowAttention(
            (qkv): Linear(in_features=384, out_features=1152, bias=True)
            (attn_drop): Dropout(p=0.0, inplace=False)
            (proj): Linear(in_features=384, out_features=384, bias=True)
            (proj_drop): Dropout(p=0.0, inplace=False)
            (pos_emb_funct): PosEmbMLPSwinv2D(
              (cpb_mlp): Sequential(
                (0): Linear(in_features=2, out_features=512, bias=True)
                (1): ReLU(inplace=True)
                (2): Linear(in_features=512, out_features=8, bias=False)
              )
            )
          )
          (hat_mlp): Mlp(
            (fc1): Linear(in_features=384, out_features=1536, bias=True)
            (act): GELU(approximate='none')
            (fc2): Linear(in_features=1536, out_features=384, bias=True)
            (drop): Dropout(p=0.0, inplace=False)
          )
          (hat_drop_path): DropPath(drop_prob=0.122)
          (hat_pos_embed): PosEmbMLPSwinv1D(
            (cpb_mlp): Sequential(
              (0): Linear(in_features=2, out_features=512, bias=True)
              (1): ReLU()
              (2): Linear(in_features=512, out_features=384, bias=False)
            )
          )
          (upsampler): Upsample(size=7, mode='nearest')
        )
        (6): HAT(
          (pos_embed): PosEmbMLPSwinv1D(
            (cpb_mlp): Sequential(
              (0): Linear(in_features=2, out_features=512, bias=True)
              (1): ReLU()
              (2): Linear(in_features=512, out_features=384, bias=False)
            )
          )
          (norm1): LayerNorm((384,), eps=1e-05, elementwise_affine=True)
          (attn): WindowAttention(
            (qkv): Linear(in_features=384, out_features=1152, bias=True)
            (attn_drop): Dropout(p=0.0, inplace=False)
            (proj): Linear(in_features=384, out_features=384, bias=True)
            (proj_drop): Dropout(p=0.0, inplace=False)
            (pos_emb_funct): PosEmbMLPSwinv2D(
              (cpb_mlp): Sequential(
                (0): Linear(in_features=2, out_features=512, bias=True)
                (1): ReLU(inplace=True)
                (2): Linear(in_features=512, out_features=8, bias=False)
              )
            )
          )
          (drop_path): DropPath(drop_prob=0.133)
          (norm2): LayerNorm((384,), eps=1e-05, elementwise_affine=True)
          (mlp): Mlp(
            (fc1): Linear(in_features=384, out_features=1536, bias=True)
            (act): GELU(approximate='none')
            (fc2): Linear(in_features=1536, out_features=384, bias=True)
            (drop): Dropout(p=0.0, inplace=False)
          )
          (hat_norm1): LayerNorm((384,), eps=1e-05, elementwise_affine=True)
          (hat_norm2): LayerNorm((384,), eps=1e-05, elementwise_affine=True)
          (hat_attn): WindowAttention(
            (qkv): Linear(in_features=384, out_features=1152, bias=True)
            (attn_drop): Dropout(p=0.0, inplace=False)
            (proj): Linear(in_features=384, out_features=384, bias=True)
            (proj_drop): Dropout(p=0.0, inplace=False)
            (pos_emb_funct): PosEmbMLPSwinv2D(
              (cpb_mlp): Sequential(
                (0): Linear(in_features=2, out_features=512, bias=True)
                (1): ReLU(inplace=True)
                (2): Linear(in_features=512, out_features=8, bias=False)
              )
            )
          )
          (hat_mlp): Mlp(
            (fc1): Linear(in_features=384, out_features=1536, bias=True)
            (act): GELU(approximate='none')
            (fc2): Linear(in_features=1536, out_features=384, bias=True)
            (drop): Dropout(p=0.0, inplace=False)
          )
          (hat_drop_path): DropPath(drop_prob=0.133)
          (hat_pos_embed): PosEmbMLPSwinv1D(
            (cpb_mlp): Sequential(
              (0): Linear(in_features=2, out_features=512, bias=True)
              (1): ReLU()
              (2): Linear(in_features=512, out_features=384, bias=False)
            )
          )
          (upsampler): Upsample(size=7, mode='nearest')
        )
        (7): HAT(
          (pos_embed): PosEmbMLPSwinv1D(
            (cpb_mlp): Sequential(
              (0): Linear(in_features=2, out_features=512, bias=True)
              (1): ReLU()
              (2): Linear(in_features=512, out_features=384, bias=False)
            )
          )
          (norm1): LayerNorm((384,), eps=1e-05, elementwise_affine=True)
          (attn): WindowAttention(
            (qkv): Linear(in_features=384, out_features=1152, bias=True)
            (attn_drop): Dropout(p=0.0, inplace=False)
            (proj): Linear(in_features=384, out_features=384, bias=True)
            (proj_drop): Dropout(p=0.0, inplace=False)
            (pos_emb_funct): PosEmbMLPSwinv2D(
              (cpb_mlp): Sequential(
                (0): Linear(in_features=2, out_features=512, bias=True)
                (1): ReLU(inplace=True)
                (2): Linear(in_features=512, out_features=8, bias=False)
              )
            )
          )
          (drop_path): DropPath(drop_prob=0.144)
          (norm2): LayerNorm((384,), eps=1e-05, elementwise_affine=True)
          (mlp): Mlp(
            (fc1): Linear(in_features=384, out_features=1536, bias=True)
            (act): GELU(approximate='none')
            (fc2): Linear(in_features=1536, out_features=384, bias=True)
            (drop): Dropout(p=0.0, inplace=False)
          )
          (hat_norm1): LayerNorm((384,), eps=1e-05, elementwise_affine=True)
          (hat_norm2): LayerNorm((384,), eps=1e-05, elementwise_affine=True)
          (hat_attn): WindowAttention(
            (qkv): Linear(in_features=384, out_features=1152, bias=True)
            (attn_drop): Dropout(p=0.0, inplace=False)
            (proj): Linear(in_features=384, out_features=384, bias=True)
            (proj_drop): Dropout(p=0.0, inplace=False)
            (pos_emb_funct): PosEmbMLPSwinv2D(
              (cpb_mlp): Sequential(
                (0): Linear(in_features=2, out_features=512, bias=True)
                (1): ReLU(inplace=True)
                (2): Linear(in_features=512, out_features=8, bias=False)
              )
            )
          )
          (hat_mlp): Mlp(
            (fc1): Linear(in_features=384, out_features=1536, bias=True)
            (act): GELU(approximate='none')
            (fc2): Linear(in_features=1536, out_features=384, bias=True)
            (drop): Dropout(p=0.0, inplace=False)
          )
          (hat_drop_path): DropPath(drop_prob=0.144)
          (hat_pos_embed): PosEmbMLPSwinv1D(
            (cpb_mlp): Sequential(
              (0): Linear(in_features=2, out_features=512, bias=True)
              (1): ReLU()
              (2): Linear(in_features=512, out_features=384, bias=False)
            )
          )
          (upsampler): Upsample(size=7, mode='nearest')
        )
      )
      (downsample): Downsample(
        (norm): LayerNorm2d((384,), eps=1e-06, elementwise_affine=True)
        (reduction): Sequential(
          (0): Conv2d(384, 768, kernel_size=(3, 3), stride=(2, 2), padding=(1, 1), bias=False)
        )
      )
      (global_tokenizer): TokenInitializer(
        (pos_embed): Conv2d(384, 384, kernel_size=(3, 3), stride=(1, 1), padding=(1, 1), groups=384)
        (to_global_feature): Sequential(
          (pos): Conv2d(384, 384, kernel_size=(3, 3), stride=(1, 1), padding=(1, 1), groups=384)
          (pool): AvgPool2d(kernel_size=5, stride=3, padding=0)
        )
      )
    )
    (3): FasterViTLayer(
      (blocks): ModuleList(
        (0): HAT(
          (pos_embed): PosEmbMLPSwinv1D(
            (cpb_mlp): Sequential(
              (0): Linear(in_features=2, out_features=512, bias=True)
              (1): ReLU()
              (2): Linear(in_features=512, out_features=768, bias=False)
            )
          )
          (norm1): LayerNorm((768,), eps=1e-05, elementwise_affine=True)
          (attn): WindowAttention(
            (qkv): Linear(in_features=768, out_features=2304, bias=True)
            (attn_drop): Dropout(p=0.0, inplace=False)
            (proj): Linear(in_features=768, out_features=768, bias=True)
            (proj_drop): Dropout(p=0.0, inplace=False)
            (pos_emb_funct): PosEmbMLPSwinv2D(
              (cpb_mlp): Sequential(
                (0): Linear(in_features=2, out_features=512, bias=True)
                (1): ReLU(inplace=True)
                (2): Linear(in_features=512, out_features=16, bias=False)
              )
            )
          )
          (drop_path): DropPath(drop_prob=0.156)
          (norm2): LayerNorm((768,), eps=1e-05, elementwise_affine=True)
          (mlp): Mlp(
            (fc1): Linear(in_features=768, out_features=3072, bias=True)
            (act): GELU(approximate='none')
            (fc2): Linear(in_features=3072, out_features=768, bias=True)
            (drop): Dropout(p=0.0, inplace=False)
          )
        )
        (1): HAT(
          (pos_embed): PosEmbMLPSwinv1D(
            (cpb_mlp): Sequential(
              (0): Linear(in_features=2, out_features=512, bias=True)
              (1): ReLU()
              (2): Linear(in_features=512, out_features=768, bias=False)
            )
          )
          (norm1): LayerNorm((768,), eps=1e-05, elementwise_affine=True)
          (attn): WindowAttention(
            (qkv): Linear(in_features=768, out_features=2304, bias=True)
            (attn_drop): Dropout(p=0.0, inplace=False)
            (proj): Linear(in_features=768, out_features=768, bias=True)
            (proj_drop): Dropout(p=0.0, inplace=False)
            (pos_emb_funct): PosEmbMLPSwinv2D(
              (cpb_mlp): Sequential(
                (0): Linear(in_features=2, out_features=512, bias=True)
                (1): ReLU(inplace=True)
                (2): Linear(in_features=512, out_features=16, bias=False)
              )
            )
          )
          (drop_path): DropPath(drop_prob=0.167)
          (norm2): LayerNorm((768,), eps=1e-05, elementwise_affine=True)
          (mlp): Mlp(
            (fc1): Linear(in_features=768, out_features=3072, bias=True)
            (act): GELU(approximate='none')
            (fc2): Linear(in_features=3072, out_features=768, bias=True)
            (drop): Dropout(p=0.0, inplace=False)
          )
        )
        (2): HAT(
          (pos_embed): PosEmbMLPSwinv1D(
            (cpb_mlp): Sequential(
              (0): Linear(in_features=2, out_features=512, bias=True)
              (1): ReLU()
              (2): Linear(in_features=512, out_features=768, bias=False)
            )
          )
          (norm1): LayerNorm((768,), eps=1e-05, elementwise_affine=True)
          (attn): WindowAttention(
            (qkv): Linear(in_features=768, out_features=2304, bias=True)
            (attn_drop): Dropout(p=0.0, inplace=False)
            (proj): Linear(in_features=768, out_features=768, bias=True)
            (proj_drop): Dropout(p=0.0, inplace=False)
            (pos_emb_funct): PosEmbMLPSwinv2D(
              (cpb_mlp): Sequential(
                (0): Linear(in_features=2, out_features=512, bias=True)
                (1): ReLU(inplace=True)
                (2): Linear(in_features=512, out_features=16, bias=False)
              )
            )
          )
          (drop_path): DropPath(drop_prob=0.178)
          (norm2): LayerNorm((768,), eps=1e-05, elementwise_affine=True)
          (mlp): Mlp(
            (fc1): Linear(in_features=768, out_features=3072, bias=True)
            (act): GELU(approximate='none')
            (fc2): Linear(in_features=3072, out_features=768, bias=True)
            (drop): Dropout(p=0.0, inplace=False)
          )
        )
        (3): HAT(
          (pos_embed): PosEmbMLPSwinv1D(
            (cpb_mlp): Sequential(
              (0): Linear(in_features=2, out_features=512, bias=True)
              (1): ReLU()
              (2): Linear(in_features=512, out_features=768, bias=False)
            )
          )
          (norm1): LayerNorm((768,), eps=1e-05, elementwise_affine=True)
          (attn): WindowAttention(
            (qkv): Linear(in_features=768, out_features=2304, bias=True)
            (attn_drop): Dropout(p=0.0, inplace=False)
            (proj): Linear(in_features=768, out_features=768, bias=True)
            (proj_drop): Dropout(p=0.0, inplace=False)
            (pos_emb_funct): PosEmbMLPSwinv2D(
              (cpb_mlp): Sequential(
                (0): Linear(in_features=2, out_features=512, bias=True)
                (1): ReLU(inplace=True)
                (2): Linear(in_features=512, out_features=16, bias=False)
              )
            )
          )
          (drop_path): DropPath(drop_prob=0.189)
          (norm2): LayerNorm((768,), eps=1e-05, elementwise_affine=True)
          (mlp): Mlp(
            (fc1): Linear(in_features=768, out_features=3072, bias=True)
            (act): GELU(approximate='none')
            (fc2): Linear(in_features=3072, out_features=768, bias=True)
            (drop): Dropout(p=0.0, inplace=False)
          )
        )
        (4): HAT(
          (pos_embed): PosEmbMLPSwinv1D(
            (cpb_mlp): Sequential(
              (0): Linear(in_features=2, out_features=512, bias=True)
              (1): ReLU()
              (2): Linear(in_features=512, out_features=768, bias=False)
            )
          )
          (norm1): LayerNorm((768,), eps=1e-05, elementwise_affine=True)
          (attn): WindowAttention(
            (qkv): Linear(in_features=768, out_features=2304, bias=True)
            (attn_drop): Dropout(p=0.0, inplace=False)
            (proj): Linear(in_features=768, out_features=768, bias=True)
            (proj_drop): Dropout(p=0.0, inplace=False)
            (pos_emb_funct): PosEmbMLPSwinv2D(
              (cpb_mlp): Sequential(
                (0): Linear(in_features=2, out_features=512, bias=True)
                (1): ReLU(inplace=True)
                (2): Linear(in_features=512, out_features=16, bias=False)
              )
            )
          )
          (drop_path): DropPath(drop_prob=0.200)
          (norm2): LayerNorm((768,), eps=1e-05, elementwise_affine=True)
          (mlp): Mlp(
            (fc1): Linear(in_features=768, out_features=3072, bias=True)
            (act): GELU(approximate='none')
            (fc2): Linear(in_features=3072, out_features=768, bias=True)
            (drop): Dropout(p=0.0, inplace=False)
          )
        )
      )
    )
  )
  (norm): BatchNorm2d(768, eps=1e-05, momentum=0.1, affine=True, track_running_stats=True)
  (avgpool): AdaptiveAvgPool2d(output_size=1)
  (head): Linear(in_features=768, out_features=2, bias=True)
)
FasterViT(
  (patch_embed): PatchEmbed(
    (proj): Identity()
    (conv_down): Sequential(
      (0): Conv2d(3, 64, kernel_size=(3, 3), stride=(2, 2), padding=(1, 1), bias=False)
      (1): BatchNorm2d(64, eps=0.0001, momentum=0.1, affine=True, track_running_stats=True)
      (2): ReLU()
      (3): Conv2d(64, 96, kernel_size=(3, 3), stride=(2, 2), padding=(1, 1), bias=False)
      (4): BatchNorm2d(96, eps=0.0001, momentum=0.1, affine=True, track_running_stats=True)
      (5): ReLU()
    )
  )
  (levels): ModuleList(
    (0): FasterViTLayer(
      (blocks): ModuleList(
        (0): ConvBlock(
          (conv1): Conv2d(96, 96, kernel_size=(3, 3), stride=(1, 1), padding=(1, 1))
          (norm1): BatchNorm2d(96, eps=1e-05, momentum=0.1, affine=True, track_running_stats=True)
          (act1): GELU(approximate='none')
          (conv2): Conv2d(96, 96, kernel_size=(3, 3), stride=(1, 1), padding=(1, 1))
          (norm2): BatchNorm2d(96, eps=1e-05, momentum=0.1, affine=True, track_running_stats=True)
          (drop_path): Identity()
        )
        (1): ConvBlock(
          (conv1): Conv2d(96, 96, kernel_size=(3, 3), stride=(1, 1), padding=(1, 1))
          (norm1): BatchNorm2d(96, eps=1e-05, momentum=0.1, affine=True, track_running_stats=True)
          (act1): GELU(approximate='none')
          (conv2): Conv2d(96, 96, kernel_size=(3, 3), stride=(1, 1), padding=(1, 1))
          (norm2): BatchNorm2d(96, eps=1e-05, momentum=0.1, affine=True, track_running_stats=True)
          (drop_path): DropPath(drop_prob=0.011)
        )
        (2): ConvBlock(
          (conv1): Conv2d(96, 96, kernel_size=(3, 3), stride=(1, 1), padding=(1, 1))
          (norm1): BatchNorm2d(96, eps=1e-05, momentum=0.1, affine=True, track_running_stats=True)
          (act1): GELU(approximate='none')
          (conv2): Conv2d(96, 96, kernel_size=(3, 3), stride=(1, 1), padding=(1, 1))
          (norm2): BatchNorm2d(96, eps=1e-05, momentum=0.1, affine=True, track_running_stats=True)
          (drop_path): DropPath(drop_prob=0.022)
        )
      )
      (downsample): Downsample(
        (norm): LayerNorm2d((96,), eps=1e-06, elementwise_affine=True)
        (reduction): Sequential(
          (0): Conv2d(96, 192, kernel_size=(3, 3), stride=(2, 2), padding=(1, 1), bias=False)
        )
      )
    )
    (1): FasterViTLayer(
      (blocks): ModuleList(
        (0): ConvBlock(
          (conv1): Conv2d(192, 192, kernel_size=(3, 3), stride=(1, 1), padding=(1, 1))
          (norm1): BatchNorm2d(192, eps=1e-05, momentum=0.1, affine=True, track_running_stats=True)
          (act1): GELU(approximate='none')
          (conv2): Conv2d(192, 192, kernel_size=(3, 3), stride=(1, 1), padding=(1, 1))
          (norm2): BatchNorm2d(192, eps=1e-05, momentum=0.1, affine=True, track_running_stats=True)
          (drop_path): DropPath(drop_prob=0.033)
        )
        (1): ConvBlock(
          (conv1): Conv2d(192, 192, kernel_size=(3, 3), stride=(1, 1), padding=(1, 1))
          (norm1): BatchNorm2d(192, eps=1e-05, momentum=0.1, affine=True, track_running_stats=True)
          (act1): GELU(approximate='none')
          (conv2): Conv2d(192, 192, kernel_size=(3, 3), stride=(1, 1), padding=(1, 1))
          (norm2): BatchNorm2d(192, eps=1e-05, momentum=0.1, affine=True, track_running_stats=True)
          (drop_path): DropPath(drop_prob=0.044)
        )
        (2): ConvBlock(
          (conv1): Conv2d(192, 192, kernel_size=(3, 3), stride=(1, 1), padding=(1, 1))
          (norm1): BatchNorm2d(192, eps=1e-05, momentum=0.1, affine=True, track_running_stats=True)
          (act1): GELU(approximate='none')
          (conv2): Conv2d(192, 192, kernel_size=(3, 3), stride=(1, 1), padding=(1, 1))
          (norm2): BatchNorm2d(192, eps=1e-05, momentum=0.1, affine=True, track_running_stats=True)
          (drop_path): DropPath(drop_prob=0.056)
        )
      )
      (downsample): Downsample(
        (norm): LayerNorm2d((192,), eps=1e-06, elementwise_affine=True)
        (reduction): Sequential(
          (0): Conv2d(192, 384, kernel_size=(3, 3), stride=(2, 2), padding=(1, 1), bias=False)
        )
      )
    )
    (2): FasterViTLayer(
      (blocks): ModuleList(
        (0): HAT(
          (pos_embed): PosEmbMLPSwinv1D(
            (cpb_mlp): Sequential(
              (0): Linear(in_features=2, out_features=512, bias=True)
              (1): ReLU()
              (2): Linear(in_features=512, out_features=384, bias=False)
            )
          )
          (norm1): LayerNorm((384,), eps=1e-05, elementwise_affine=True)
          (attn): WindowAttention(
            (qkv): Linear(in_features=384, out_features=1152, bias=True)
            (attn_drop): Dropout(p=0.0, inplace=False)
            (proj): Linear(in_features=384, out_features=384, bias=True)
            (proj_drop): Dropout(p=0.0, inplace=False)
            (pos_emb_funct): PosEmbMLPSwinv2D(
              (cpb_mlp): Sequential(
                (0): Linear(in_features=2, out_features=512, bias=True)
                (1): ReLU(inplace=True)
                (2): Linear(in_features=512, out_features=8, bias=False)
              )
            )
          )
          (drop_path): DropPath(drop_prob=0.067)
          (norm2): LayerNorm((384,), eps=1e-05, elementwise_affine=True)
          (mlp): Mlp(
            (fc1): Linear(in_features=384, out_features=1536, bias=True)
            (act): GELU(approximate='none')
            (fc2): Linear(in_features=1536, out_features=384, bias=True)
            (drop): Dropout(p=0.0, inplace=False)
          )
          (hat_norm1): LayerNorm((384,), eps=1e-05, elementwise_affine=True)
          (hat_norm2): LayerNorm((384,), eps=1e-05, elementwise_affine=True)
          (hat_attn): WindowAttention(
            (qkv): Linear(in_features=384, out_features=1152, bias=True)
            (attn_drop): Dropout(p=0.0, inplace=False)
            (proj): Linear(in_features=384, out_features=384, bias=True)
            (proj_drop): Dropout(p=0.0, inplace=False)
            (pos_emb_funct): PosEmbMLPSwinv2D(
              (cpb_mlp): Sequential(
                (0): Linear(in_features=2, out_features=512, bias=True)
                (1): ReLU(inplace=True)
                (2): Linear(in_features=512, out_features=8, bias=False)
              )
            )
          )
          (hat_mlp): Mlp(
            (fc1): Linear(in_features=384, out_features=1536, bias=True)
            (act): GELU(approximate='none')
            (fc2): Linear(in_features=1536, out_features=384, bias=True)
            (drop): Dropout(p=0.0, inplace=False)
          )
          (hat_drop_path): DropPath(drop_prob=0.067)
          (hat_pos_embed): PosEmbMLPSwinv1D(
            (cpb_mlp): Sequential(
              (0): Linear(in_features=2, out_features=512, bias=True)
              (1): ReLU()
              (2): Linear(in_features=512, out_features=384, bias=False)
            )
          )
          (upsampler): Upsample(size=7, mode='nearest')
        )
        (1): HAT(
          (pos_embed): PosEmbMLPSwinv1D(
            (cpb_mlp): Sequential(
              (0): Linear(in_features=2, out_features=512, bias=True)
              (1): ReLU()
              (2): Linear(in_features=512, out_features=384, bias=False)
            )
          )
          (norm1): LayerNorm((384,), eps=1e-05, elementwise_affine=True)
          (attn): WindowAttention(
            (qkv): Linear(in_features=384, out_features=1152, bias=True)
            (attn_drop): Dropout(p=0.0, inplace=False)
            (proj): Linear(in_features=384, out_features=384, bias=True)
            (proj_drop): Dropout(p=0.0, inplace=False)
            (pos_emb_funct): PosEmbMLPSwinv2D(
              (cpb_mlp): Sequential(
                (0): Linear(in_features=2, out_features=512, bias=True)
                (1): ReLU(inplace=True)
                (2): Linear(in_features=512, out_features=8, bias=False)
              )
            )
          )
          (drop_path): DropPath(drop_prob=0.078)
          (norm2): LayerNorm((384,), eps=1e-05, elementwise_affine=True)
          (mlp): Mlp(
            (fc1): Linear(in_features=384, out_features=1536, bias=True)
            (act): GELU(approximate='none')
            (fc2): Linear(in_features=1536, out_features=384, bias=True)
            (drop): Dropout(p=0.0, inplace=False)
          )
          (hat_norm1): LayerNorm((384,), eps=1e-05, elementwise_affine=True)
          (hat_norm2): LayerNorm((384,), eps=1e-05, elementwise_affine=True)
          (hat_attn): WindowAttention(
            (qkv): Linear(in_features=384, out_features=1152, bias=True)
            (attn_drop): Dropout(p=0.0, inplace=False)
            (proj): Linear(in_features=384, out_features=384, bias=True)
            (proj_drop): Dropout(p=0.0, inplace=False)
            (pos_emb_funct): PosEmbMLPSwinv2D(
              (cpb_mlp): Sequential(
                (0): Linear(in_features=2, out_features=512, bias=True)
                (1): ReLU(inplace=True)
                (2): Linear(in_features=512, out_features=8, bias=False)
              )
            )
          )
          (hat_mlp): Mlp(
            (fc1): Linear(in_features=384, out_features=1536, bias=True)
            (act): GELU(approximate='none')
            (fc2): Linear(in_features=1536, out_features=384, bias=True)
            (drop): Dropout(p=0.0, inplace=False)
          )
          (hat_drop_path): DropPath(drop_prob=0.078)
          (hat_pos_embed): PosEmbMLPSwinv1D(
            (cpb_mlp): Sequential(
              (0): Linear(in_features=2, out_features=512, bias=True)
              (1): ReLU()
              (2): Linear(in_features=512, out_features=384, bias=False)
            )
          )
          (upsampler): Upsample(size=7, mode='nearest')
        )
        (2): HAT(
          (pos_embed): PosEmbMLPSwinv1D(
            (cpb_mlp): Sequential(
              (0): Linear(in_features=2, out_features=512, bias=True)
              (1): ReLU()
              (2): Linear(in_features=512, out_features=384, bias=False)
            )
          )
          (norm1): LayerNorm((384,), eps=1e-05, elementwise_affine=True)
          (attn): WindowAttention(
            (qkv): Linear(in_features=384, out_features=1152, bias=True)
            (attn_drop): Dropout(p=0.0, inplace=False)
            (proj): Linear(in_features=384, out_features=384, bias=True)
            (proj_drop): Dropout(p=0.0, inplace=False)
            (pos_emb_funct): PosEmbMLPSwinv2D(
              (cpb_mlp): Sequential(
                (0): Linear(in_features=2, out_features=512, bias=True)
                (1): ReLU(inplace=True)
                (2): Linear(in_features=512, out_features=8, bias=False)
              )
            )
          )
          (drop_path): DropPath(drop_prob=0.089)
          (norm2): LayerNorm((384,), eps=1e-05, elementwise_affine=True)
          (mlp): Mlp(
            (fc1): Linear(in_features=384, out_features=1536, bias=True)
            (act): GELU(approximate='none')
            (fc2): Linear(in_features=1536, out_features=384, bias=True)
            (drop): Dropout(p=0.0, inplace=False)
          )
          (hat_norm1): LayerNorm((384,), eps=1e-05, elementwise_affine=True)
          (hat_norm2): LayerNorm((384,), eps=1e-05, elementwise_affine=True)
          (hat_attn): WindowAttention(
            (qkv): Linear(in_features=384, out_features=1152, bias=True)
            (attn_drop): Dropout(p=0.0, inplace=False)
            (proj): Linear(in_features=384, out_features=384, bias=True)
            (proj_drop): Dropout(p=0.0, inplace=False)
            (pos_emb_funct): PosEmbMLPSwinv2D(
              (cpb_mlp): Sequential(
                (0): Linear(in_features=2, out_features=512, bias=True)
                (1): ReLU(inplace=True)
                (2): Linear(in_features=512, out_features=8, bias=False)
              )
            )
          )
          (hat_mlp): Mlp(
            (fc1): Linear(in_features=384, out_features=1536, bias=True)
            (act): GELU(approximate='none')
            (fc2): Linear(in_features=1536, out_features=384, bias=True)
            (drop): Dropout(p=0.0, inplace=False)
          )
          (hat_drop_path): DropPath(drop_prob=0.089)
          (hat_pos_embed): PosEmbMLPSwinv1D(
            (cpb_mlp): Sequential(
…
                (0): Linear(in_features=2, out_features=512, bias=True)
                (1): ReLU(inplace=True)
                (2): Linear(in_features=512, out_features=8, bias=False)
              )
            )
          )
          (drop_path): DropPath(drop_prob=0.122)
          (norm2): LayerNorm((384,), eps=1e-05, elementwise_affine=True)
          (mlp): Mlp(
            (fc1): Linear(in_features=384, out_features=1536, bias=True)
            (act): GELU(approximate='none')
            (fc2): Linear(in_features=1536, out_features=384, bias=True)
            (drop): Dropout(p=0.0, inplace=False)
          )
          (hat_norm1): LayerNorm((384,), eps=1e-05, elementwise_affine=True)
          (hat_norm2): LayerNorm((384,), eps=1e-05, elementwise_affine=True)
          (hat_attn): WindowAttention(
            (qkv): Linear(in_features=384, out_features=1152, bias=True)
            (attn_drop): Dropout(p=0.0, inplace=False)
            (proj): Linear(in_features=384, out_features=384, bias=True)
            (proj_drop): Dropout(p=0.0, inplace=False)
            (pos_emb_funct): PosEmbMLPSwinv2D(
              (cpb_mlp): Sequential(
                (0): Linear(in_features=2, out_features=512, bias=True)
                (1): ReLU(inplace=True)
                (2): Linear(in_features=512, out_features=8, bias=False)
              )
            )
          )
          (hat_mlp): Mlp(
            (fc1): Linear(in_features=384, out_features=1536, bias=True)
            (act): GELU(approximate='none')
            (fc2): Linear(in_features=1536, out_features=384, bias=True)
            (drop): Dropout(p=0.0, inplace=False)
          )
          (hat_drop_path): DropPath(drop_prob=0.122)
          (hat_pos_embed): PosEmbMLPSwinv1D(
            (cpb_mlp): Sequential(
              (0): Linear(in_features=2, out_features=512, bias=True)
              (1): ReLU()
              (2): Linear(in_features=512, out_features=384, bias=False)
            )
          )
          (upsampler): Upsample(size=7, mode='nearest')
        )
        (6): HAT(
          (pos_embed): PosEmbMLPSwinv1D(
            (cpb_mlp): Sequential(
              (0): Linear(in_features=2, out_features=512, bias=True)
              (1): ReLU()
              (2): Linear(in_features=512, out_features=384, bias=False)
            )
          )
          (norm1): LayerNorm((384,), eps=1e-05, elementwise_affine=True)
          (attn): WindowAttention(
            (qkv): Linear(in_features=384, out_features=1152, bias=True)
            (attn_drop): Dropout(p=0.0, inplace=False)
            (proj): Linear(in_features=384, out_features=384, bias=True)
            (proj_drop): Dropout(p=0.0, inplace=False)
            (pos_emb_funct): PosEmbMLPSwinv2D(
              (cpb_mlp): Sequential(
                (0): Linear(in_features=2, out_features=512, bias=True)
                (1): ReLU(inplace=True)
                (2): Linear(in_features=512, out_features=8, bias=False)
              )
            )
          )
          (drop_path): DropPath(drop_prob=0.133)
          (norm2): LayerNorm((384,), eps=1e-05, elementwise_affine=True)
          (mlp): Mlp(
            (fc1): Linear(in_features=384, out_features=1536, bias=True)
            (act): GELU(approximate='none')
            (fc2): Linear(in_features=1536, out_features=384, bias=True)
            (drop): Dropout(p=0.0, inplace=False)
          )
          (hat_norm1): LayerNorm((384,), eps=1e-05, elementwise_affine=True)
          (hat_norm2): LayerNorm((384,), eps=1e-05, elementwise_affine=True)
          (hat_attn): WindowAttention(
            (qkv): Linear(in_features=384, out_features=1152, bias=True)
            (attn_drop): Dropout(p=0.0, inplace=False)
            (proj): Linear(in_features=384, out_features=384, bias=True)
            (proj_drop): Dropout(p=0.0, inplace=False)
            (pos_emb_funct): PosEmbMLPSwinv2D(
              (cpb_mlp): Sequential(
                (0): Linear(in_features=2, out_features=512, bias=True)
                (1): ReLU(inplace=True)
                (2): Linear(in_features=512, out_features=8, bias=False)
              )
            )
          )
          (hat_mlp): Mlp(
            (fc1): Linear(in_features=384, out_features=1536, bias=True)
            (act): GELU(approximate='none')
            (fc2): Linear(in_features=1536, out_features=384, bias=True)
            (drop): Dropout(p=0.0, inplace=False)
          )
          (hat_drop_path): DropPath(drop_prob=0.133)
          (hat_pos_embed): PosEmbMLPSwinv1D(
            (cpb_mlp): Sequential(
              (0): Linear(in_features=2, out_features=512, bias=True)
              (1): ReLU()
              (2): Linear(in_features=512, out_features=384, bias=False)
            )
          )
          (upsampler): Upsample(size=7, mode='nearest')
        )
        (7): HAT(
          (pos_embed): PosEmbMLPSwinv1D(
            (cpb_mlp): Sequential(
              (0): Linear(in_features=2, out_features=512, bias=True)
              (1): ReLU()
              (2): Linear(in_features=512, out_features=384, bias=False)
            )
          )
          (norm1): LayerNorm((384,), eps=1e-05, elementwise_affine=True)
          (attn): WindowAttention(
            (qkv): Linear(in_features=384, out_features=1152, bias=True)
            (attn_drop): Dropout(p=0.0, inplace=False)
            (proj): Linear(in_features=384, out_features=384, bias=True)
            (proj_drop): Dropout(p=0.0, inplace=False)
            (pos_emb_funct): PosEmbMLPSwinv2D(
              (cpb_mlp): Sequential(
                (0): Linear(in_features=2, out_features=512, bias=True)
                (1): ReLU(inplace=True)
                (2): Linear(in_features=512, out_features=8, bias=False)
              )
            )
          )
          (drop_path): DropPath(drop_prob=0.144)
          (norm2): LayerNorm((384,), eps=1e-05, elementwise_affine=True)
          (mlp): Mlp(
            (fc1): Linear(in_features=384, out_features=1536, bias=True)
            (act): GELU(approximate='none')
            (fc2): Linear(in_features=1536, out_features=384, bias=True)
            (drop): Dropout(p=0.0, inplace=False)
          )
          (hat_norm1): LayerNorm((384,), eps=1e-05, elementwise_affine=True)
          (hat_norm2): LayerNorm((384,), eps=1e-05, elementwise_affine=True)
          (hat_attn): WindowAttention(
            (qkv): Linear(in_features=384, out_features=1152, bias=True)
            (attn_drop): Dropout(p=0.0, inplace=False)
            (proj): Linear(in_features=384, out_features=384, bias=True)
            (proj_drop): Dropout(p=0.0, inplace=False)
            (pos_emb_funct): PosEmbMLPSwinv2D(
              (cpb_mlp): Sequential(
                (0): Linear(in_features=2, out_features=512, bias=True)
                (1): ReLU(inplace=True)
                (2): Linear(in_features=512, out_features=8, bias=False)
              )
            )
          )
          (hat_mlp): Mlp(
            (fc1): Linear(in_features=384, out_features=1536, bias=True)
            (act): GELU(approximate='none')
            (fc2): Linear(in_features=1536, out_features=384, bias=True)
            (drop): Dropout(p=0.0, inplace=False)
          )
          (hat_drop_path): DropPath(drop_prob=0.144)
          (hat_pos_embed): PosEmbMLPSwinv1D(
            (cpb_mlp): Sequential(
              (0): Linear(in_features=2, out_features=512, bias=True)
              (1): ReLU()
              (2): Linear(in_features=512, out_features=384, bias=False)
            )
          )
          (upsampler): Upsample(size=7, mode='nearest')
        )
      )
      (downsample): Downsample(
        (norm): LayerNorm2d((384,), eps=1e-06, elementwise_affine=True)
        (reduction): Sequential(
          (0): Conv2d(384, 768, kernel_size=(3, 3), stride=(2, 2), padding=(1, 1), bias=False)
        )
      )
      (global_tokenizer): TokenInitializer(
        (pos_embed): Conv2d(384, 384, kernel_size=(3, 3), stride=(1, 1), padding=(1, 1), groups=384)
        (to_global_feature): Sequential(
          (pos): Conv2d(384, 384, kernel_size=(3, 3), stride=(1, 1), padding=(1, 1), groups=384)
          (pool): AvgPool2d(kernel_size=5, stride=3, padding=0)
        )
      )
    )
    (3): FasterViTLayer(
      (blocks): ModuleList(
        (0): HAT(
          (pos_embed): PosEmbMLPSwinv1D(
            (cpb_mlp): Sequential(
              (0): Linear(in_features=2, out_features=512, bias=True)
              (1): ReLU()
              (2): Linear(in_features=512, out_features=768, bias=False)
            )
          )
          (norm1): LayerNorm((768,), eps=1e-05, elementwise_affine=True)
          (attn): WindowAttention(
            (qkv): Linear(in_features=768, out_features=2304, bias=True)
            (attn_drop): Dropout(p=0.0, inplace=False)
            (proj): Linear(in_features=768, out_features=768, bias=True)
            (proj_drop): Dropout(p=0.0, inplace=False)
            (pos_emb_funct): PosEmbMLPSwinv2D(
              (cpb_mlp): Sequential(
                (0): Linear(in_features=2, out_features=512, bias=True)
                (1): ReLU(inplace=True)
                (2): Linear(in_features=512, out_features=16, bias=False)
              )
            )
          )
          (drop_path): DropPath(drop_prob=0.156)
          (norm2): LayerNorm((768,), eps=1e-05, elementwise_affine=True)
          (mlp): Mlp(
            (fc1): Linear(in_features=768, out_features=3072, bias=True)
            (act): GELU(approximate='none')
            (fc2): Linear(in_features=3072, out_features=768, bias=True)
            (drop): Dropout(p=0.0, inplace=False)
          )
        )
        (1): HAT(
          (pos_embed): PosEmbMLPSwinv1D(
            (cpb_mlp): Sequential(
              (0): Linear(in_features=2, out_features=512, bias=True)
              (1): ReLU()
              (2): Linear(in_features=512, out_features=768, bias=False)
            )
          )
          (norm1): LayerNorm((768,), eps=1e-05, elementwise_affine=True)
          (attn): WindowAttention(
            (qkv): Linear(in_features=768, out_features=2304, bias=True)
            (attn_drop): Dropout(p=0.0, inplace=False)
            (proj): Linear(in_features=768, out_features=768, bias=True)
            (proj_drop): Dropout(p=0.0, inplace=False)
            (pos_emb_funct): PosEmbMLPSwinv2D(
              (cpb_mlp): Sequential(
                (0): Linear(in_features=2, out_features=512, bias=True)
                (1): ReLU(inplace=True)
                (2): Linear(in_features=512, out_features=16, bias=False)
              )
            )
          )
          (drop_path): DropPath(drop_prob=0.167)
          (norm2): LayerNorm((768,), eps=1e-05, elementwise_affine=True)
          (mlp): Mlp(
            (fc1): Linear(in_features=768, out_features=3072, bias=True)
            (act): GELU(approximate='none')
            (fc2): Linear(in_features=3072, out_features=768, bias=True)
            (drop): Dropout(p=0.0, inplace=False)
          )
        )
        (2): HAT(
          (pos_embed): PosEmbMLPSwinv1D(
            (cpb_mlp): Sequential(
              (0): Linear(in_features=2, out_features=512, bias=True)
              (1): ReLU()
              (2): Linear(in_features=512, out_features=768, bias=False)
            )
          )
          (norm1): LayerNorm((768,), eps=1e-05, elementwise_affine=True)
          (attn): WindowAttention(
            (qkv): Linear(in_features=768, out_features=2304, bias=True)
            (attn_drop): Dropout(p=0.0, inplace=False)
            (proj): Linear(in_features=768, out_features=768, bias=True)
            (proj_drop): Dropout(p=0.0, inplace=False)
            (pos_emb_funct): PosEmbMLPSwinv2D(
              (cpb_mlp): Sequential(
                (0): Linear(in_features=2, out_features=512, bias=True)
                (1): ReLU(inplace=True)
                (2): Linear(in_features=512, out_features=16, bias=False)
              )
            )
          )
          (drop_path): DropPath(drop_prob=0.178)
          (norm2): LayerNorm((768,), eps=1e-05, elementwise_affine=True)
          (mlp): Mlp(
            (fc1): Linear(in_features=768, out_features=3072, bias=True)
            (act): GELU(approximate='none')
            (fc2): Linear(in_features=3072, out_features=768, bias=True)
            (drop): Dropout(p=0.0, inplace=False)
          )
        )
        (3): HAT(
          (pos_embed): PosEmbMLPSwinv1D(
            (cpb_mlp): Sequential(
              (0): Linear(in_features=2, out_features=512, bias=True)
              (1): ReLU()
              (2): Linear(in_features=512, out_features=768, bias=False)
            )
          )
          (norm1): LayerNorm((768,), eps=1e-05, elementwise_affine=True)
          (attn): WindowAttention(
            (qkv): Linear(in_features=768, out_features=2304, bias=True)
            (attn_drop): Dropout(p=0.0, inplace=False)
            (proj): Linear(in_features=768, out_features=768, bias=True)
            (proj_drop): Dropout(p=0.0, inplace=False)
            (pos_emb_funct): PosEmbMLPSwinv2D(
              (cpb_mlp): Sequential(
                (0): Linear(in_features=2, out_features=512, bias=True)
                (1): ReLU(inplace=True)
                (2): Linear(in_features=512, out_features=16, bias=False)
              )
            )
          )
          (drop_path): DropPath(drop_prob=0.189)
          (norm2): LayerNorm((768,), eps=1e-05, elementwise_affine=True)
          (mlp): Mlp(
            (fc1): Linear(in_features=768, out_features=3072, bias=True)
            (act): GELU(approximate='none')
            (fc2): Linear(in_features=3072, out_features=768, bias=True)
            (drop): Dropout(p=0.0, inplace=False)
          )
        )
        (4): HAT(
          (pos_embed): PosEmbMLPSwinv1D(
            (cpb_mlp): Sequential(
              (0): Linear(in_features=2, out_features=512, bias=True)
              (1): ReLU()
              (2): Linear(in_features=512, out_features=768, bias=False)
            )
          )
          (norm1): LayerNorm((768,), eps=1e-05, elementwise_affine=True)
          (attn): WindowAttention(
            (qkv): Linear(in_features=768, out_features=2304, bias=True)
            (attn_drop): Dropout(p=0.0, inplace=False)
            (proj): Linear(in_features=768, out_features=768, bias=True)
            (proj_drop): Dropout(p=0.0, inplace=False)
            (pos_emb_funct): PosEmbMLPSwinv2D(
              (cpb_mlp): Sequential(
                (0): Linear(in_features=2, out_features=512, bias=True)
                (1): ReLU(inplace=True)
                (2): Linear(in_features=512, out_features=16, bias=False)
              )
            )
          )
          (drop_path): DropPath(drop_prob=0.200)
          (norm2): LayerNorm((768,), eps=1e-05, elementwise_affine=True)
          (mlp): Mlp(
            (fc1): Linear(in_features=768, out_features=3072, bias=True)
            (act): GELU(approximate='none')
            (fc2): Linear(in_features=3072, out_features=768, bias=True)
            (drop): Dropout(p=0.0, inplace=False)
          )
        )
      )
    )
  )
  (norm): BatchNorm2d(768, eps=1e-05, momentum=0.1, affine=True, track_running_stats=True)
  (avgpool): AdaptiveAvgPool2d(output_size=1)
  (head): Linear(in_features=768, out_features=2, bias=True)
)
FasterViT(
  (patch_embed): PatchEmbed(
    (proj): Identity()
    (conv_down): Sequential(
      (0): Conv2d(3, 64, kernel_size=(3, 3), stride=(2, 2), padding=(1, 1), bias=False)
      (1): BatchNorm2d(64, eps=0.0001, momentum=0.1, affine=True, track_running_stats=True)
      (2): ReLU()
      (3): Conv2d(64, 96, kernel_size=(3, 3), stride=(2, 2), padding=(1, 1), bias=False)
      (4): BatchNorm2d(96, eps=0.0001, momentum=0.1, affine=True, track_running_stats=True)
      (5): ReLU()
    )
  )
  (levels): ModuleList(
    (0): FasterViTLayer(
      (blocks): ModuleList(
        (0): ConvBlock(
          (conv1): Conv2d(96, 96, kernel_size=(3, 3), stride=(1, 1), padding=(1, 1))
          (norm1): BatchNorm2d(96, eps=1e-05, momentum=0.1, affine=True, track_running_stats=True)
          (act1): GELU(approximate='none')
          (conv2): Conv2d(96, 96, kernel_size=(3, 3), stride=(1, 1), padding=(1, 1))
          (norm2): BatchNorm2d(96, eps=1e-05, momentum=0.1, affine=True, track_running_stats=True)
          (drop_path): Identity()
        )
        (1): ConvBlock(
          (conv1): Conv2d(96, 96, kernel_size=(3, 3), stride=(1, 1), padding=(1, 1))
          (norm1): BatchNorm2d(96, eps=1e-05, momentum=0.1, affine=True, track_running_stats=True)
          (act1): GELU(approximate='none')
          (conv2): Conv2d(96, 96, kernel_size=(3, 3), stride=(1, 1), padding=(1, 1))
          (norm2): BatchNorm2d(96, eps=1e-05, momentum=0.1, affine=True, track_running_stats=True)
          (drop_path): DropPath(drop_prob=0.011)
        )
        (2): ConvBlock(
          (conv1): Conv2d(96, 96, kernel_size=(3, 3), stride=(1, 1), padding=(1, 1))
          (norm1): BatchNorm2d(96, eps=1e-05, momentum=0.1, affine=True, track_running_stats=True)
          (act1): GELU(approximate='none')
          (conv2): Conv2d(96, 96, kernel_size=(3, 3), stride=(1, 1), padding=(1, 1))
          (norm2): BatchNorm2d(96, eps=1e-05, momentum=0.1, affine=True, track_running_stats=True)
          (drop_path): DropPath(drop_prob=0.022)
        )
      )
      (downsample): Downsample(
        (norm): LayerNorm2d((96,), eps=1e-06, elementwise_affine=True)
        (reduction): Sequential(
          (0): Conv2d(96, 192, kernel_size=(3, 3), stride=(2, 2), padding=(1, 1), bias=False)
        )
      )
    )
    (1): FasterViTLayer(
      (blocks): ModuleList(
        (0): ConvBlock(
          (conv1): Conv2d(192, 192, kernel_size=(3, 3), stride=(1, 1), padding=(1, 1))
          (norm1): BatchNorm2d(192, eps=1e-05, momentum=0.1, affine=True, track_running_stats=True)
          (act1): GELU(approximate='none')
          (conv2): Conv2d(192, 192, kernel_size=(3, 3), stride=(1, 1), padding=(1, 1))
          (norm2): BatchNorm2d(192, eps=1e-05, momentum=0.1, affine=True, track_running_stats=True)
          (drop_path): DropPath(drop_prob=0.033)
        )
        (1): ConvBlock(
          (conv1): Conv2d(192, 192, kernel_size=(3, 3), stride=(1, 1), padding=(1, 1))
          (norm1): BatchNorm2d(192, eps=1e-05, momentum=0.1, affine=True, track_running_stats=True)
          (act1): GELU(approximate='none')
          (conv2): Conv2d(192, 192, kernel_size=(3, 3), stride=(1, 1), padding=(1, 1))
          (norm2): BatchNorm2d(192, eps=1e-05, momentum=0.1, affine=True, track_running_stats=True)
          (drop_path): DropPath(drop_prob=0.044)
        )
        (2): ConvBlock(
          (conv1): Conv2d(192, 192, kernel_size=(3, 3), stride=(1, 1), padding=(1, 1))
          (norm1): BatchNorm2d(192, eps=1e-05, momentum=0.1, affine=True, track_running_stats=True)
          (act1): GELU(approximate='none')
          (conv2): Conv2d(192, 192, kernel_size=(3, 3), stride=(1, 1), padding=(1, 1))
          (norm2): BatchNorm2d(192, eps=1e-05, momentum=0.1, affine=True, track_running_stats=True)
          (drop_path): DropPath(drop_prob=0.056)
        )
      )
      (downsample): Downsample(
        (norm): LayerNorm2d((192,), eps=1e-06, elementwise_affine=True)
        (reduction): Sequential(
          (0): Conv2d(192, 384, kernel_size=(3, 3), stride=(2, 2), padding=(1, 1), bias=False)
        )
      )
    )
    (2): FasterViTLayer(
      (blocks): ModuleList(
        (0): HAT(
          (pos_embed): PosEmbMLPSwinv1D(
            (cpb_mlp): Sequential(
              (0): Linear(in_features=2, out_features=512, bias=True)
              (1): ReLU()
              (2): Linear(in_features=512, out_features=384, bias=False)
            )
          )
          (norm1): LayerNorm((384,), eps=1e-05, elementwise_affine=True)
          (attn): WindowAttention(
            (qkv): Linear(in_features=384, out_features=1152, bias=True)
            (attn_drop): Dropout(p=0.0, inplace=False)
            (proj): Linear(in_features=384, out_features=384, bias=True)
            (proj_drop): Dropout(p=0.0, inplace=False)
            (pos_emb_funct): PosEmbMLPSwinv2D(
              (cpb_mlp): Sequential(
                (0): Linear(in_features=2, out_features=512, bias=True)
                (1): ReLU(inplace=True)
                (2): Linear(in_features=512, out_features=8, bias=False)
              )
            )
          )
          (drop_path): DropPath(drop_prob=0.067)
          (norm2): LayerNorm((384,), eps=1e-05, elementwise_affine=True)
          (mlp): Mlp(
            (fc1): Linear(in_features=384, out_features=1536, bias=True)
            (act): GELU(approximate='none')
            (fc2): Linear(in_features=1536, out_features=384, bias=True)
            (drop): Dropout(p=0.0, inplace=False)
          )
          (hat_norm1): LayerNorm((384,), eps=1e-05, elementwise_affine=True)
          (hat_norm2): LayerNorm((384,), eps=1e-05, elementwise_affine=True)
          (hat_attn): WindowAttention(
            (qkv): Linear(in_features=384, out_features=1152, bias=True)
            (attn_drop): Dropout(p=0.0, inplace=False)
            (proj): Linear(in_features=384, out_features=384, bias=True)
            (proj_drop): Dropout(p=0.0, inplace=False)
            (pos_emb_funct): PosEmbMLPSwinv2D(
              (cpb_mlp): Sequential(
                (0): Linear(in_features=2, out_features=512, bias=True)
                (1): ReLU(inplace=True)
                (2): Linear(in_features=512, out_features=8, bias=False)
              )
            )
          )
          (hat_mlp): Mlp(
            (fc1): Linear(in_features=384, out_features=1536, bias=True)
            (act): GELU(approximate='none')
            (fc2): Linear(in_features=1536, out_features=384, bias=True)
            (drop): Dropout(p=0.0, inplace=False)
          )
          (hat_drop_path): DropPath(drop_prob=0.067)
          (hat_pos_embed): PosEmbMLPSwinv1D(
            (cpb_mlp): Sequential(
              (0): Linear(in_features=2, out_features=512, bias=True)
              (1): ReLU()
              (2): Linear(in_features=512, out_features=384, bias=False)
            )
          )
          (upsampler): Upsample(size=7, mode='nearest')
        )
        (1): HAT(
          (pos_embed): PosEmbMLPSwinv1D(
            (cpb_mlp): Sequential(
              (0): Linear(in_features=2, out_features=512, bias=True)
              (1): ReLU()
              (2): Linear(in_features=512, out_features=384, bias=False)
            )
          )
          (norm1): LayerNorm((384,), eps=1e-05, elementwise_affine=True)
          (attn): WindowAttention(
            (qkv): Linear(in_features=384, out_features=1152, bias=True)
            (attn_drop): Dropout(p=0.0, inplace=False)
            (proj): Linear(in_features=384, out_features=384, bias=True)
            (proj_drop): Dropout(p=0.0, inplace=False)
            (pos_emb_funct): PosEmbMLPSwinv2D(
              (cpb_mlp): Sequential(
                (0): Linear(in_features=2, out_features=512, bias=True)
                (1): ReLU(inplace=True)
                (2): Linear(in_features=512, out_features=8, bias=False)
              )
            )
          )
          (drop_path): DropPath(drop_prob=0.078)
          (norm2): LayerNorm((384,), eps=1e-05, elementwise_affine=True)
          (mlp): Mlp(
            (fc1): Linear(in_features=384, out_features=1536, bias=True)
            (act): GELU(approximate='none')
            (fc2): Linear(in_features=1536, out_features=384, bias=True)
            (drop): Dropout(p=0.0, inplace=False)
          )
          (hat_norm1): LayerNorm((384,), eps=1e-05, elementwise_affine=True)
          (hat_norm2): LayerNorm((384,), eps=1e-05, elementwise_affine=True)
          (hat_attn): WindowAttention(
            (qkv): Linear(in_features=384, out_features=1152, bias=True)
            (attn_drop): Dropout(p=0.0, inplace=False)
            (proj): Linear(in_features=384, out_features=384, bias=True)
            (proj_drop): Dropout(p=0.0, inplace=False)
            (pos_emb_funct): PosEmbMLPSwinv2D(
              (cpb_mlp): Sequential(
                (0): Linear(in_features=2, out_features=512, bias=True)
                (1): ReLU(inplace=True)
                (2): Linear(in_features=512, out_features=8, bias=False)
              )
            )
          )
          (hat_mlp): Mlp(
            (fc1): Linear(in_features=384, out_features=1536, bias=True)
            (act): GELU(approximate='none')
            (fc2): Linear(in_features=1536, out_features=384, bias=True)
            (drop): Dropout(p=0.0, inplace=False)
          )
          (hat_drop_path): DropPath(drop_prob=0.078)
          (hat_pos_embed): PosEmbMLPSwinv1D(
            (cpb_mlp): Sequential(
              (0): Linear(in_features=2, out_features=512, bias=True)
              (1): ReLU()
              (2): Linear(in_features=512, out_features=384, bias=False)
            )
          )
          (upsampler): Upsample(size=7, mode='nearest')
        )
        (2): HAT(
          (pos_embed): PosEmbMLPSwinv1D(
            (cpb_mlp): Sequential(
              (0): Linear(in_features=2, out_features=512, bias=True)
              (1): ReLU()
              (2): Linear(in_features=512, out_features=384, bias=False)
            )
          )
          (norm1): LayerNorm((384,), eps=1e-05, elementwise_affine=True)
          (attn): WindowAttention(
            (qkv): Linear(in_features=384, out_features=1152, bias=True)
            (attn_drop): Dropout(p=0.0, inplace=False)
            (proj): Linear(in_features=384, out_features=384, bias=True)
            (proj_drop): Dropout(p=0.0, inplace=False)
            (pos_emb_funct): PosEmbMLPSwinv2D(
              (cpb_mlp): Sequential(
                (0): Linear(in_features=2, out_features=512, bias=True)
                (1): ReLU(inplace=True)
                (2): Linear(in_features=512, out_features=8, bias=False)
              )
            )
          )
          (drop_path): DropPath(drop_prob=0.089)
          (norm2): LayerNorm((384,), eps=1e-05, elementwise_affine=True)
          (mlp): Mlp(
            (fc1): Linear(in_features=384, out_features=1536, bias=True)
            (act): GELU(approximate='none')
            (fc2): Linear(in_features=1536, out_features=384, bias=True)
            (drop): Dropout(p=0.0, inplace=False)
          )
          (hat_norm1): LayerNorm((384,), eps=1e-05, elementwise_affine=True)
          (hat_norm2): LayerNorm((384,), eps=1e-05, elementwise_affine=True)
          (hat_attn): WindowAttention(
            (qkv): Linear(in_features=384, out_features=1152, bias=True)
            (attn_drop): Dropout(p=0.0, inplace=False)
            (proj): Linear(in_features=384, out_features=384, bias=True)
            (proj_drop): Dropout(p=0.0, inplace=False)
            (pos_emb_funct): PosEmbMLPSwinv2D(
              (cpb_mlp): Sequential(
                (0): Linear(in_features=2, out_features=512, bias=True)
                (1): ReLU(inplace=True)
                (2): Linear(in_features=512, out_features=8, bias=False)
              )
            )
          )
          (hat_mlp): Mlp(
            (fc1): Linear(in_features=384, out_features=1536, bias=True)
            (act): GELU(approximate='none')
            (fc2): Linear(in_features=1536, out_features=384, bias=True)
            (drop): Dropout(p=0.0, inplace=False)
          )
          (hat_drop_path): DropPath(drop_prob=0.089)
          (hat_pos_embed): PosEmbMLPSwinv1D(
            (cpb_mlp): Sequential(
              (0): Linear(in_features=2, out_features=512, bias=True)
              (1): ReLU()
              (2): Linear(in_features=512, out_features=384, bias=False)
            )
          )
          (upsampler): Upsample(size=7, mode='nearest')
        )
        (3): HAT(
          (pos_embed): PosEmbMLPSwinv1D(
            (cpb_mlp): Sequential(
              (0): Linear(in_features=2, out_features=512, bias=True)
              (1): ReLU()
              (2): Linear(in_features=512, out_features=384, bias=False)
            )
          )
          (norm1): LayerNorm((384,), eps=1e-05, elementwise_affine=True)
          (attn): WindowAttention(
            (qkv): Linear(in_features=384, out_features=1152, bias=True)
            (attn_drop): Dropout(p=0.0, inplace=False)
            (proj): Linear(in_features=384, out_features=384, bias=True)
            (proj_drop): Dropout(p=0.0, inplace=False)
            (pos_emb_funct): PosEmbMLPSwinv2D(
              (cpb_mlp): Sequential(
                (0): Linear(in_features=2, out_features=512, bias=True)
                (1): ReLU(inplace=True)
                (2): Linear(in_features=512, out_features=8, bias=False)
              )
            )
          )
          (drop_path): DropPath(drop_prob=0.100)
          (norm2): LayerNorm((384,), eps=1e-05, elementwise_affine=True)
          (mlp): Mlp(
            (fc1): Linear(in_features=384, out_features=1536, bias=True)
            (act): GELU(approximate='none')
            (fc2): Linear(in_features=1536, out_features=384, bias=True)
            (drop): Dropout(p=0.0, inplace=False)
          )
          (hat_norm1): LayerNorm((384,), eps=1e-05, elementwise_affine=True)
          (hat_norm2): LayerNorm((384,), eps=1e-05, elementwise_affine=True)
          (hat_attn): WindowAttention(
            (qkv): Linear(in_features=384, out_features=1152, bias=True)
            (attn_drop): Dropout(p=0.0, inplace=False)
            (proj): Linear(in_features=384, out_features=384, bias=True)
            (proj_drop): Dropout(p=0.0, inplace=False)
            (pos_emb_funct): PosEmbMLPSwinv2D(
              (cpb_mlp): Sequential(
                (0): Linear(in_features=2, out_features=512, bias=True)
                (1): ReLU(inplace=True)
                (2): Linear(in_features=512, out_features=8, bias=False)
              )
            )
          )
          (hat_mlp): Mlp(
            (fc1): Linear(in_features=384, out_features=1536, bias=True)
            (act): GELU(approximate='none')
            (fc2): Linear(in_features=1536, out_features=384, bias=True)
            (drop): Dropout(p=0.0, inplace=False)
          )
          (hat_drop_path): DropPath(drop_prob=0.100)
          (hat_pos_embed): PosEmbMLPSwinv1D(
            (cpb_mlp): Sequential(
              (0): Linear(in_features=2, out_features=512, bias=True)
              (1): ReLU()
              (2): Linear(in_features=512, out_features=384, bias=False)
            )
          )
          (upsampler): Upsample(size=7, mode='nearest')
        )
        (4): HAT(
          (pos_embed): PosEmbMLPSwinv1D(
            (cpb_mlp): Sequential(
              (0): Linear(in_features=2, out_features=512, bias=True)
              (1): ReLU()
              (2): Linear(in_features=512, out_features=384, bias=False)
            )
          )
          (norm1): LayerNorm((384,), eps=1e-05, elementwise_affine=True)
          (attn): WindowAttention(
            (qkv): Linear(in_features=384, out_features=1152, bias=True)
            (attn_drop): Dropout(p=0.0, inplace=False)
            (proj): Linear(in_features=384, out_features=384, bias=True)
            (proj_drop): Dropout(p=0.0, inplace=False)
            (pos_emb_funct): PosEmbMLPSwinv2D(
              (cpb_mlp): Sequential(
                (0): Linear(in_features=2, out_features=512, bias=True)
                (1): ReLU(inplace=True)
                (2): Linear(in_features=512, out_features=8, bias=False)
              )
            )
          )
          (drop_path): DropPath(drop_prob=0.111)
          (norm2): LayerNorm((384,), eps=1e-05, elementwise_affine=True)
          (mlp): Mlp(
            (fc1): Linear(in_features=384, out_features=1536, bias=True)
            (act): GELU(approximate='none')
            (fc2): Linear(in_features=1536, out_features=384, bias=True)
            (drop): Dropout(p=0.0, inplace=False)
          )
          (hat_norm1): LayerNorm((384,), eps=1e-05, elementwise_affine=True)
          (hat_norm2): LayerNorm((384,), eps=1e-05, elementwise_affine=True)
          (hat_attn): WindowAttention(
            (qkv): Linear(in_features=384, out_features=1152, bias=True)
            (attn_drop): Dropout(p=0.0, inplace=False)
            (proj): Linear(in_features=384, out_features=384, bias=True)
            (proj_drop): Dropout(p=0.0, inplace=False)
            (pos_emb_funct): PosEmbMLPSwinv2D(
              (cpb_mlp): Sequential(
                (0): Linear(in_features=2, out_features=512, bias=True)
                (1): ReLU(inplace=True)
                (2): Linear(in_features=512, out_features=8, bias=False)
              )
            )
          )
          (hat_mlp): Mlp(
            (fc1): Linear(in_features=384, out_features=1536, bias=True)
            (act): GELU(approximate='none')
            (fc2): Linear(in_features=1536, out_features=384, bias=True)
            (drop): Dropout(p=0.0, inplace=False)
          )
          (hat_drop_path): DropPath(drop_prob=0.111)
          (hat_pos_embed): PosEmbMLPSwinv1D(
            (cpb_mlp): Sequential(
              (0): Linear(in_features=2, out_features=512, bias=True)
              (1): ReLU()
              (2): Linear(in_features=512, out_features=384, bias=False)
            )
          )
          (upsampler): Upsample(size=7, mode='nearest')
        )
        (5): HAT(
          (pos_embed): PosEmbMLPSwinv1D(
            (cpb_mlp): Sequential(
              (0): Linear(in_features=2, out_features=512, bias=True)
              (1): ReLU()
              (2): Linear(in_features=512, out_features=384, bias=False)
            )
          )
          (norm1): LayerNorm((384,), eps=1e-05, elementwise_affine=True)
          (attn): WindowAttention(
            (qkv): Linear(in_features=384, out_features=1152, bias=True)
            (attn_drop): Dropout(p=0.0, inplace=False)
            (proj): Linear(in_features=384, out_features=384, bias=True)
            (proj_drop): Dropout(p=0.0, inplace=False)
            (pos_emb_funct): PosEmbMLPSwinv2D(
              (cpb_mlp): Sequential(
                (0): Linear(in_features=2, out_features=512, bias=True)
                (1): ReLU(inplace=True)
                (2): Linear(in_features=512, out_features=8, bias=False)
              )
            )
          )
          (drop_path): DropPath(drop_prob=0.122)
          (norm2): LayerNorm((384,), eps=1e-05, elementwise_affine=True)
          (mlp): Mlp(
            (fc1): Linear(in_features=384, out_features=1536, bias=True)
            (act): GELU(approximate='none')
            (fc2): Linear(in_features=1536, out_features=384, bias=True)
            (drop): Dropout(p=0.0, inplace=False)
          )
          (hat_norm1): LayerNorm((384,), eps=1e-05, elementwise_affine=True)
          (hat_norm2): LayerNorm((384,), eps=1e-05, elementwise_affine=True)
          (hat_attn): WindowAttention(
            (qkv): Linear(in_features=384, out_features=1152, bias=True)
            (attn_drop): Dropout(p=0.0, inplace=False)
            (proj): Linear(in_features=384, out_features=384, bias=True)
            (proj_drop): Dropout(p=0.0, inplace=False)
            (pos_emb_funct): PosEmbMLPSwinv2D(
              (cpb_mlp): Sequential(
                (0): Linear(in_features=2, out_features=512, bias=True)
                (1): ReLU(inplace=True)
                (2): Linear(in_features=512, out_features=8, bias=False)
              )
            )
          )
          (hat_mlp): Mlp(
            (fc1): Linear(in_features=384, out_features=1536, bias=True)
            (act): GELU(approximate='none')
            (fc2): Linear(in_features=1536, out_features=384, bias=True)
            (drop): Dropout(p=0.0, inplace=False)
          )
          (hat_drop_path): DropPath(drop_prob=0.122)
          (hat_pos_embed): PosEmbMLPSwinv1D(
            (cpb_mlp): Sequential(
              (0): Linear(in_features=2, out_features=512, bias=True)
              (1): ReLU()
              (2): Linear(in_features=512, out_features=384, bias=False)
            )
          )
          (upsampler): Upsample(size=7, mode='nearest')
        )
        (6): HAT(
          (pos_embed): PosEmbMLPSwinv1D(
            (cpb_mlp): Sequential(
              (0): Linear(in_features=2, out_features=512, bias=True)
              (1): ReLU()
              (2): Linear(in_features=512, out_features=384, bias=False)
            )
          )
          (norm1): LayerNorm((384,), eps=1e-05, elementwise_affine=True)
          (attn): WindowAttention(
            (qkv): Linear(in_features=384, out_features=1152, bias=True)
            (attn_drop): Dropout(p=0.0, inplace=False)
            (proj): Linear(in_features=384, out_features=384, bias=True)
            (proj_drop): Dropout(p=0.0, inplace=False)
            (pos_emb_funct): PosEmbMLPSwinv2D(
              (cpb_mlp): Sequential(
                (0): Linear(in_features=2, out_features=512, bias=True)
                (1): ReLU(inplace=True)
                (2): Linear(in_features=512, out_features=8, bias=False)
              )
            )
          )
          (drop_path): DropPath(drop_prob=0.133)
          (norm2): LayerNorm((384,), eps=1e-05, elementwise_affine=True)
          (mlp): Mlp(
            (fc1): Linear(in_features=384, out_features=1536, bias=True)
            (act): GELU(approximate='none')
            (fc2): Linear(in_features=1536, out_features=384, bias=True)
            (drop): Dropout(p=0.0, inplace=False)
          )
          (hat_norm1): LayerNorm((384,), eps=1e-05, elementwise_affine=True)
          (hat_norm2): LayerNorm((384,), eps=1e-05, elementwise_affine=True)
          (hat_attn): WindowAttention(
            (qkv): Linear(in_features=384, out_features=1152, bias=True)
            (attn_drop): Dropout(p=0.0, inplace=False)
            (proj): Linear(in_features=384, out_features=384, bias=True)
            (proj_drop): Dropout(p=0.0, inplace=False)
            (pos_emb_funct): PosEmbMLPSwinv2D(
              (cpb_mlp): Sequential(
                (0): Linear(in_features=2, out_features=512, bias=True)
                (1): ReLU(inplace=True)
                (2): Linear(in_features=512, out_features=8, bias=False)
              )
            )
          )
          (hat_mlp): Mlp(
            (fc1): Linear(in_features=384, out_features=1536, bias=True)
            (act): GELU(approximate='none')
            (fc2): Linear(in_features=1536, out_features=384, bias=True)
            (drop): Dropout(p=0.0, inplace=False)
          )
          (hat_drop_path): DropPath(drop_prob=0.133)
          (hat_pos_embed): PosEmbMLPSwinv1D(
            (cpb_mlp): Sequential(
              (0): Linear(in_features=2, out_features=512, bias=True)
              (1): ReLU()
              (2): Linear(in_features=512, out_features=384, bias=False)
            )
          )
          (upsampler): Upsample(size=7, mode='nearest')
        )
        (7): HAT(
          (pos_embed): PosEmbMLPSwinv1D(
            (cpb_mlp): Sequential(
              (0): Linear(in_features=2, out_features=512, bias=True)
              (1): ReLU()
              (2): Linear(in_features=512, out_features=384, bias=False)
            )
          )
          (norm1): LayerNorm((384,), eps=1e-05, elementwise_affine=True)
          (attn): WindowAttention(
            (qkv): Linear(in_features=384, out_features=1152, bias=True)
            (attn_drop): Dropout(p=0.0, inplace=False)
            (proj): Linear(in_features=384, out_features=384, bias=True)
            (proj_drop): Dropout(p=0.0, inplace=False)
            (pos_emb_funct): PosEmbMLPSwinv2D(
              (cpb_mlp): Sequential(
                (0): Linear(in_features=2, out_features=512, bias=True)
                (1): ReLU(inplace=True)
                (2): Linear(in_features=512, out_features=8, bias=False)
              )
            )
          )
          (drop_path): DropPath(drop_prob=0.144)
          (norm2): LayerNorm((384,), eps=1e-05, elementwise_affine=True)
          (mlp): Mlp(
            (fc1): Linear(in_features=384, out_features=1536, bias=True)
            (act): GELU(approximate='none')
            (fc2): Linear(in_features=1536, out_features=384, bias=True)
            (drop): Dropout(p=0.0, inplace=False)
          )
          (hat_norm1): LayerNorm((384,), eps=1e-05, elementwise_affine=True)
          (hat_norm2): LayerNorm((384,), eps=1e-05, elementwise_affine=True)
          (hat_attn): WindowAttention(
            (qkv): Linear(in_features=384, out_features=1152, bias=True)
            (attn_drop): Dropout(p=0.0, inplace=False)
            (proj): Linear(in_features=384, out_features=384, bias=True)
            (proj_drop): Dropout(p=0.0, inplace=False)
            (pos_emb_funct): PosEmbMLPSwinv2D(
              (cpb_mlp): Sequential(
                (0): Linear(in_features=2, out_features=512, bias=True)
                (1): ReLU(inplace=True)
                (2): Linear(in_features=512, out_features=8, bias=False)
              )
            )
          )
          (hat_mlp): Mlp(
            (fc1): Linear(in_features=384, out_features=1536, bias=True)
            (act): GELU(approximate='none')
            (fc2): Linear(in_features=1536, out_features=384, bias=True)
            (drop): Dropout(p=0.0, inplace=False)
          )
          (hat_drop_path): DropPath(drop_prob=0.144)
          (hat_pos_embed): PosEmbMLPSwinv1D(
            (cpb_mlp): Sequential(
              (0): Linear(in_features=2, out_features=512, bias=True)
              (1): ReLU()
              (2): Linear(in_features=512, out_features=384, bias=False)
            )
          )
          (upsampler): Upsample(size=7, mode='nearest')
        )
      )
      (downsample): Downsample(
        (norm): LayerNorm2d((384,), eps=1e-06, elementwise_affine=True)
        (reduction): Sequential(
          (0): Conv2d(384, 768, kernel_size=(3, 3), stride=(2, 2), padding=(1, 1), bias=False)
        )
      )
      (global_tokenizer): TokenInitializer(
        (pos_embed): Conv2d(384, 384, kernel_size=(3, 3), stride=(1, 1), padding=(1, 1), groups=384)
        (to_global_feature): Sequential(
          (pos): Conv2d(384, 384, kernel_size=(3, 3), stride=(1, 1), padding=(1, 1), groups=384)
          (pool): AvgPool2d(kernel_size=5, stride=3, padding=0)
        )
      )
    )
    (3): FasterViTLayer(
      (blocks): ModuleList(
        (0): HAT(
          (pos_embed): PosEmbMLPSwinv1D(
            (cpb_mlp): Sequential(
              (0): Linear(in_features=2, out_features=512, bias=True)
              (1): ReLU()
              (2): Linear(in_features=512, out_features=768, bias=False)
            )
          )
          (norm1): LayerNorm((768,), eps=1e-05, elementwise_affine=True)
          (attn): WindowAttention(
            (qkv): Linear(in_features=768, out_features=2304, bias=True)
            (attn_drop): Dropout(p=0.0, inplace=False)
            (proj): Linear(in_features=768, out_features=768, bias=True)
            (proj_drop): Dropout(p=0.0, inplace=False)
            (pos_emb_funct): PosEmbMLPSwinv2D(
              (cpb_mlp): Sequential(
                (0): Linear(in_features=2, out_features=512, bias=True)
                (1): ReLU(inplace=True)
                (2): Linear(in_features=512, out_features=16, bias=False)
              )
            )
          )
          (drop_path): DropPath(drop_prob=0.156)
          (norm2): LayerNorm((768,), eps=1e-05, elementwise_affine=True)
          (mlp): Mlp(
            (fc1): Linear(in_features=768, out_features=3072, bias=True)
            (act): GELU(approximate='none')
            (fc2): Linear(in_features=3072, out_features=768, bias=True)
            (drop): Dropout(p=0.0, inplace=False)
          )
        )
        (1): HAT(
          (pos_embed): PosEmbMLPSwinv1D(
            (cpb_mlp): Sequential(
              (0): Linear(in_features=2, out_features=512, bias=True)
              (1): ReLU()
              (2): Linear(in_features=512, out_features=768, bias=False)
            )
          )
          (norm1): LayerNorm((768,), eps=1e-05, elementwise_affine=True)
          (attn): WindowAttention(
            (qkv): Linear(in_features=768, out_features=2304, bias=True)
            (attn_drop): Dropout(p=0.0, inplace=False)
            (proj): Linear(in_features=768, out_features=768, bias=True)
            (proj_drop): Dropout(p=0.0, inplace=False)
            (pos_emb_funct): PosEmbMLPSwinv2D(
              (cpb_mlp): Sequential(
                (0): Linear(in_features=2, out_features=512, bias=True)
                (1): ReLU(inplace=True)
                (2): Linear(in_features=512, out_features=16, bias=False)
              )
            )
          )
          (drop_path): DropPath(drop_prob=0.167)
          (norm2): LayerNorm((768,), eps=1e-05, elementwise_affine=True)
          (mlp): Mlp(
            (fc1): Linear(in_features=768, out_features=3072, bias=True)
            (act): GELU(approximate='none')
            (fc2): Linear(in_features=3072, out_features=768, bias=True)
            (drop): Dropout(p=0.0, inplace=False)
          )
        )
        (2): HAT(
          (pos_embed): PosEmbMLPSwinv1D(
            (cpb_mlp): Sequential(
              (0): Linear(in_features=2, out_features=512, bias=True)
              (1): ReLU()
              (2): Linear(in_features=512, out_features=768, bias=False)
            )
          )
          (norm1): LayerNorm((768,), eps=1e-05, elementwise_affine=True)
          (attn): WindowAttention(
            (qkv): Linear(in_features=768, out_features=2304, bias=True)
            (attn_drop): Dropout(p=0.0, inplace=False)
            (proj): Linear(in_features=768, out_features=768, bias=True)
            (proj_drop): Dropout(p=0.0, inplace=False)
            (pos_emb_funct): PosEmbMLPSwinv2D(
              (cpb_mlp): Sequential(
                (0): Linear(in_features=2, out_features=512, bias=True)
                (1): ReLU(inplace=True)
                (2): Linear(in_features=512, out_features=16, bias=False)
              )
            )
          )
          (drop_path): DropPath(drop_prob=0.178)
          (norm2): LayerNorm((768,), eps=1e-05, elementwise_affine=True)
          (mlp): Mlp(
            (fc1): Linear(in_features=768, out_features=3072, bias=True)
            (act): GELU(approximate='none')
            (fc2): Linear(in_features=3072, out_features=768, bias=True)
            (drop): Dropout(p=0.0, inplace=False)
          )
        )
        (3): HAT(
          (pos_embed): PosEmbMLPSwinv1D(
            (cpb_mlp): Sequential(
              (0): Linear(in_features=2, out_features=512, bias=True)
              (1): ReLU()
              (2): Linear(in_features=512, out_features=768, bias=False)
            )
          )
          (norm1): LayerNorm((768,), eps=1e-05, elementwise_affine=True)
          (attn): WindowAttention(
            (qkv): Linear(in_features=768, out_features=2304, bias=True)
            (attn_drop): Dropout(p=0.0, inplace=False)
            (proj): Linear(in_features=768, out_features=768, bias=True)
            (proj_drop): Dropout(p=0.0, inplace=False)
            (pos_emb_funct): PosEmbMLPSwinv2D(
              (cpb_mlp): Sequential(
                (0): Linear(in_features=2, out_features=512, bias=True)
                (1): ReLU(inplace=True)
                (2): Linear(in_features=512, out_features=16, bias=False)
              )
            )
          )
          (drop_path): DropPath(drop_prob=0.189)
          (norm2): LayerNorm((768,), eps=1e-05, elementwise_affine=True)
          (mlp): Mlp(
            (fc1): Linear(in_features=768, out_features=3072, bias=True)
            (act): GELU(approximate='none')
            (fc2): Linear(in_features=3072, out_features=768, bias=True)
            (drop): Dropout(p=0.0, inplace=False)
          )
        )
        (4): HAT(
          (pos_embed): PosEmbMLPSwinv1D(
            (cpb_mlp): Sequential(
              (0): Linear(in_features=2, out_features=512, bias=True)
              (1): ReLU()
              (2): Linear(in_features=512, out_features=768, bias=False)
            )
          )
          (norm1): LayerNorm((768,), eps=1e-05, elementwise_affine=True)
          (attn): WindowAttention(
            (qkv): Linear(in_features=768, out_features=2304, bias=True)
            (attn_drop): Dropout(p=0.0, inplace=False)
            (proj): Linear(in_features=768, out_features=768, bias=True)
            (proj_drop): Dropout(p=0.0, inplace=False)
            (pos_emb_funct): PosEmbMLPSwinv2D(
              (cpb_mlp): Sequential(
                (0): Linear(in_features=2, out_features=512, bias=True)
                (1): ReLU(inplace=True)
                (2): Linear(in_features=512, out_features=16, bias=False)
              )
            )
          )
          (drop_path): DropPath(drop_prob=0.200)
          (norm2): LayerNorm((768,), eps=1e-05, elementwise_affine=True)
          (mlp): Mlp(
            (fc1): Linear(in_features=768, out_features=3072, bias=True)
            (act): GELU(approximate='none')
            (fc2): Linear(in_features=3072, out_features=768, bias=True)
            (drop): Dropout(p=0.0, inplace=False)
          )
        )
      )
    )
  )
  (norm): BatchNorm2d(768, eps=1e-05, momentum=0.1, affine=True, track_running_stats=True)
  (avgpool): AdaptiveAvgPool2d(output_size=1)
  (head): Linear(in_features=768, out_features=2, bias=True)
)
  0%|          | 0/3949 [00:00<?, ?it/s]  0%|          | 0/3949 [00:00<?, ?it/s]  0%|          | 0/3949 [00:00<?, ?it/s]  0%|          | 0/3949 [00:00<?, ?it/s]  0%|          | 0/3949 [00:00<?, ?it/s]  0%|          | 0/3949 [00:00<?, ?it/s]  0%|          | 0/3949 [00:00<?, ?it/s]  0%|          | 1/3949 [00:00<18:36,  3.54it/s]  0%|          | 
…
