…
Loading checkpoint shards: 100%|██████████| 2/2 [00:07<00:00,  3.46s/it]Loading checkpoint shards: 100%|██████████| 2/2 [00:07<00:00,  3.54s/it]
Loading checkpoint shards: 100%|██████████| 2/2 [00:06<00:00,  3.07s/it]Loading checkpoint shards: 100%|██████████| 2/2 [00:06<00:00,  3.18s/it]
Loading checkpoint shards: 100%|██████████| 2/2 [00:06<00:00,  3.20s/it]Loading checkpoint shards: 100%|██████████| 2/2 [00:06<00:00,  3.37s/it]
Loading checkpoint shards: 100%|██████████| 2/2 [00:05<00:00,  2.77s/it]Loading checkpoint shards: 100%|██████████| 2/2 [00:05<00:00,  2.93s/it]
LLM init. firstly
 LlavaQWenForCausalLM(
  (transformer): LlavaQWenModel(
    (wte): Embedding(151936, 2048)
    (drop): Dropout(p=0.0, inplace=False)
    (rotary_emb): RotaryEmbedding()
    (h): ModuleList(
      (0-23): 24 x QWenBlock(
        (ln_1): RMSNorm()
        (attn): QWenAttention(
          (c_attn): Linear(in_features=2048, out_features=6144, bias=True)
          (c_proj): Linear(in_features=2048, out_features=2048, bias=False)
          (attn_dropout): Dropout(p=0.0, inplace=False)
        )
        (ln_2): RMSNorm()
        (mlp): QWenMLP(
          (w1): Linear(in_features=2048, out_features=5504, bias=False)
          (w2): Linear(in_features=2048, out_features=5504, bias=False)
          (c_proj): Linear(in_features=5504, out_features=2048, bias=False)
        )
      )
    )
    (ln_f): RMSNorm()
  )
  (lm_head): Linear(in_features=2048, out_features=151936, bias=False)
)
Loading checkpoint shards: 100%|██████████| 2/2 [00:06<00:00,  3.17s/it]Loading checkpoint shards: 100%|██████████| 2/2 [00:06<00:00,  3.21s/it]
Loading checkpoint shards: 100%|██████████| 2/2 [00:05<00:00,  2.67s/it]Loading checkpoint shards: 100%|██████████| 2/2 [00:05<00:00,  2.86s/it]
Loading checkpoint shards: 100%|██████████| 2/2 [00:06<00:00,  3.01s/it]Loading checkpoint shards: 100%|██████████| 2/2 [00:06<00:00,  3.14s/it]
Vision encoder and proj init.
 LlavaQWenForCausalLM(
  (transformer): LlavaQWenModel(
    (wte): Embedding(151851, 2048)
    (drop): Dropout(p=0.0, inplace=False)
    (rotary_emb): RotaryEmbedding()
    (h): ModuleList(
      (0-23): 24 x QWenBlock(
        (ln_1): RMSNorm()
        (attn): QWenAttention(
          (c_attn): Linear(in_features=2048, out_features=6144, bias=True)
          (c_proj): Linear(in_features=2048, out_features=2048, bias=False)
          (attn_dropout): Dropout(p=0.0, inplace=False)
        )
        (ln_2): RMSNorm()
        (mlp): QWenMLP(
          (w1): Linear(in_features=2048, out_features=5504, bias=False)
          (w2): Linear(in_features=2048, out_features=5504, bias=False)
          (c_proj): Linear(in_features=5504, out_features=2048, bias=False)
        )
      )
    )
    (ln_f): RMSNorm()
    (image_tower): CLIPVisionTower(
      (image_tower): CLIPVisionModel(
        (vision_model): CLIPVisionTransformer(
          (embeddings): CLIPVisionEmbeddings(
            (patch_embedding): Conv2d(3, 1024, kernel_size=(14, 14), stride=(14, 14), bias=False)
            (position_embedding): Embedding(577, 1024)
          )
          (pre_layrnorm): LayerNorm((1024,), eps=1e-05, elementwise_affine=True)
          (encoder): CLIPEncoder(
            (layers): ModuleList(
              (0-23): 24 x CLIPEncoderLayer(
                (self_attn): CLIPAttention(
                  (k_proj): Linear(in_features=1024, out_features=1024, bias=True)
                  (v_proj): Linear(in_features=1024, out_features=1024, bias=True)
                  (q_proj): Linear(in_features=1024, out_features=1024, bias=True)
                  (out_proj): Linear(in_features=1024, out_features=1024, bias=True)
                )
                (layer_norm1): LayerNorm((1024,), eps=1e-05, elementwise_affine=True)
                (mlp): CLIPMLP(
                  (activation_fn): QuickGELUActivation()
                  (fc1): Linear(in_features=1024, out_features=4096, bias=True)
                  (fc2): Linear(in_features=4096, out_features=1024, bias=True)
                )
                (layer_norm2): LayerNorm((1024,), eps=1e-05, elementwise_affine=True)
              )
            )
          )
          (post_layernorm): LayerNorm((1024,), eps=1e-05, elementwise_affine=True)
        )
      )
    )
    (mm_projector): build_projector(
      (image_spatial_proj): Sequential(
        (0): Linear(in_features=1024, out_features=2048, bias=True)
        (1): GELU(approximate='none')
        (2): Linear(in_features=2048, out_features=2048, bias=True)
      )
      (video_patch_proj): Identity()
      (video_spatial_proj): Identity()
      (video_temproal_proj): Identity()
      (video_global_proj): Identity()
    )
  )
  (lm_head): Linear(in_features=2048, out_features=151851, bias=False)
)
transformer.wte.weight
transformer.h.0.ln_1.weight
transformer.h.0.attn.c_attn.weight
transformer.h.0.attn.c_attn.bias
transformer.h.0.attn.c_proj.weight
transformer.h.0.ln_2.weight
transformer.h.0.mlp.w1.weight
transformer.h.0.mlp.w2.weight
transformer.h.0.mlp.c_proj.weight
transformer.h.1.ln_1.weight
transformer.h.1.attn.c_attn.weight
transformer.h.1.attn.c_attn.bias
…
transformer.h.22.mlp.c_proj.weight
transformer.h.23.ln_1.weight
transformer.h.23.attn.c_attn.weight
transformer.h.23.attn.c_attn.bias
transformer.h.23.attn.c_proj.weight
transformer.h.23.ln_2.weight
transformer.h.23.mlp.w1.weight
transformer.h.23.mlp.w2.weight
transformer.h.23.mlp.c_proj.weight
transformer.ln_f.weight
transformer.mm_projector.image_spatial_proj.0.weight
transformer.mm_projector.image_spatial_proj.0.bias
transformer.mm_projector.image_spatial_proj.2.weight
transformer.mm_projector.image_spatial_proj.2.bias
lm_head.weight
LlavaQWenForCausalLM(
  (transformer): LlavaQWenModel(
    (wte): Embedding(151851, 2048)
    (drop): Dropout(p=0.0, inplace=False)
    (rotary_emb): RotaryEmbedding()
    (h): ModuleList(
      (0-23): 24 x QWenBlock(
        (ln_1): RMSNorm()
        (attn): QWenAttention(
          (c_attn): Linear(in_features=2048, out_features=6144, bias=True)
          (c_proj): Linear(in_features=2048, out_features=2048, bias=False)
          (attn_dropout): Dropout(p=0.0, inplace=False)
        )
        (ln_2): RMSNorm()
        (mlp): QWenMLP(
          (w1): Linear(in_features=2048, out_features=5504, bias=False)
          (w2): Linear(in_features=2048, out_features=5504, bias=False)
          (c_proj): Linear(in_features=5504, out_features=2048, bias=False)
        )
      )
    )
    (ln_f): RMSNorm()
    (image_tower): CLIPVisionTower(
      (image_tower): CLIPVisionModel(
        (vision_model): CLIPVisionTransformer(
          (embeddings): CLIPVisionEmbeddings(
            (patch_embedding): Conv2d(3, 1024, kernel_size=(14, 14), stride=(14, 14), bias=False)
            (position_embedding): Embedding(577, 1024)
          )
          (pre_layrnorm): LayerNorm((1024,), eps=1e-05, elementwise_affine=True)
          (encoder): CLIPEncoder(
            (layers): ModuleList(
              (0-23): 24 x CLIPEncoderLayer(
                (self_attn): CLIPAttention(
                  (k_proj): Linear(in_features=1024, out_features=1024, bias=True)
                  (v_proj): Linear(in_features=1024, out_features=1024, bias=True)
                  (q_proj): Linear(in_features=1024, out_features=1024, bias=True)
                  (out_proj): Linear(in_features=1024, out_features=1024, bias=True)
                )
                (layer_norm1): LayerNorm((1024,), eps=1e-05, elementwise_affine=True)
                (mlp): CLIPMLP(
                  (activation_fn): QuickGELUActivation()
                  (fc1): Linear(in_features=1024, out_features=4096, bias=True)
                  (fc2): Linear(in_features=4096, out_features=1024, bias=True)
                )
                (layer_norm2): LayerNorm((1024,), eps=1e-05, elementwise_affine=True)
              )
            )
          )
          (post_layernorm): LayerNorm((1024,), eps=1e-05, elementwise_affine=True)
        )
      )
    )
    (mm_projector): build_projector(
      (image_spatial_proj): Sequential(
        (0): Linear(in_features=1024, out_features=2048, bias=True)
        (1): GELU(approximate='none')
        (2): Linear(in_features=2048, out_features=2048, bias=True)
      )
      (video_patch_proj): Identity()
      (video_spatial_proj): Identity()
      (video_temproal_proj): Identity()
      (video_global_proj): Identity()
    )
  )
  (lm_head): Linear(in_features=2048, out_features=151851, bias=False)
)
****************************************************************************************************
****************************************************************************************************
Formatting inputs...Skip in lazy mode
****************************************************************************************************
****************************************************************************************************
…
